<?xml version="1.0" ?>
<net name="text-recognition-0012" version="10">
	<layers>
		<layer id="0" name="Placeholder" type="Parameter" version="opset1">
			<data element_type="f32" shape="1,1,32,120"/>
			<output>
				<port id="0" precision="FP32">
					<dim>1</dim>
					<dim>1</dim>
					<dim>32</dim>
					<dim>120</dim>
				</port>
			</output>
		</layer>
		<layer id="1" name="data_mul_4653/copy_const" type="Const" version="opset1">
			<data element_type="f32" offset="0" shape="1,1,1,1" size="4"/>
			<output>
				<port id="1" precision="FP32">
					<dim>1</dim>
					<dim>1</dim>
					<dim>1</dim>
					<dim>1</dim>
				</port>
			</output>
		</layer>
		<layer id="2" name="Mul1_4503/Fused_Mul_" type="Multiply" version="opset1">
			<input>
				<port id="0">
					<dim>1</dim>
					<dim>1</dim>
					<dim>32</dim>
					<dim>120</dim>
				</port>
				<port id="1">
					<dim>1</dim>
					<dim>1</dim>
					<dim>1</dim>
					<dim>1</dim>
				</port>
			</input>
			<output>
				<port id="2" precision="FP32">
					<dim>1</dim>
					<dim>1</dim>
					<dim>32</dim>
					<dim>120</dim>
				</port>
			</output>
		</layer>
		<layer id="3" name="data_add_4655/copy_const" type="Const" version="opset1">
			<data element_type="f32" offset="4" shape="1,1,1,1" size="4"/>
			<output>
				<port id="1" precision="FP32">
					<dim>1</dim>
					<dim>1</dim>
					<dim>1</dim>
					<dim>1</dim>
				</port>
			</output>
		</layer>
		<layer id="4" name="Add1_4504/Fused_Add_" type="Add" version="opset1">
			<input>
				<port id="0">
					<dim>1</dim>
					<dim>1</dim>
					<dim>32</dim>
					<dim>120</dim>
				</port>
				<port id="1">
					<dim>1</dim>
					<dim>1</dim>
					<dim>1</dim>
					<dim>1</dim>
				</port>
			</input>
			<output>
				<port id="2" precision="FP32">
					<dim>1</dim>
					<dim>1</dim>
					<dim>32</dim>
					<dim>120</dim>
				</port>
			</output>
		</layer>
		<layer id="5" name="Mul1_4491/Fused_Mul_48214823_const" type="Const" version="opset1">
			<data element_type="f32" offset="8" shape="64,1,3,3" size="2304"/>
			<output>
				<port id="1" precision="FP32">
					<dim>64</dim>
					<dim>1</dim>
					<dim>3</dim>
					<dim>3</dim>
				</port>
			</output>
		</layer>
		<layer id="6" name="shadow/Conv/Conv2D" type="Convolution" version="opset1">
			<data auto_pad="same_upper" dilations="1,1" output_padding="0,0" pads_begin="1,1" pads_end="1,1" strides="1,1"/>
			<input>
				<port id="0">
					<dim>1</dim>
					<dim>1</dim>
					<dim>32</dim>
					<dim>120</dim>
				</port>
				<port id="1">
					<dim>64</dim>
					<dim>1</dim>
					<dim>3</dim>
					<dim>3</dim>
				</port>
			</input>
			<output>
				<port id="2" precision="FP32">
					<dim>1</dim>
					<dim>64</dim>
					<dim>32</dim>
					<dim>120</dim>
				</port>
			</output>
		</layer>
		<layer id="7" name="data_add_46584663/copy_const" type="Const" version="opset1">
			<data element_type="f32" offset="2312" shape="1,64,1,1" size="256"/>
			<output>
				<port id="1" precision="FP32">
					<dim>1</dim>
					<dim>64</dim>
					<dim>1</dim>
					<dim>1</dim>
				</port>
			</output>
		</layer>
		<layer id="8" name="Add1_4492/Fused_Add_" type="Add" version="opset1">
			<input>
				<port id="0">
					<dim>1</dim>
					<dim>64</dim>
					<dim>32</dim>
					<dim>120</dim>
				</port>
				<port id="1">
					<dim>1</dim>
					<dim>64</dim>
					<dim>1</dim>
					<dim>1</dim>
				</port>
			</input>
			<output>
				<port id="2" precision="FP32">
					<dim>1</dim>
					<dim>64</dim>
					<dim>32</dim>
					<dim>120</dim>
				</port>
			</output>
		</layer>
		<layer id="9" name="shadow/BatchNorm_1/Relu" type="ReLU" version="opset1">
			<input>
				<port id="0">
					<dim>1</dim>
					<dim>64</dim>
					<dim>32</dim>
					<dim>120</dim>
				</port>
			</input>
			<output>
				<port id="1" precision="FP32">
					<dim>1</dim>
					<dim>64</dim>
					<dim>32</dim>
					<dim>120</dim>
				</port>
			</output>
		</layer>
		<layer id="10" name="shadow/MaxPool2D/MaxPool" type="MaxPool" version="opset1">
			<data auto_pad="valid" kernel="2,2" pads_begin="0,0" pads_end="0,0" strides="2,2"/>
			<input>
				<port id="0">
					<dim>1</dim>
					<dim>64</dim>
					<dim>32</dim>
					<dim>120</dim>
				</port>
			</input>
			<output>
				<port id="1" precision="FP32">
					<dim>1</dim>
					<dim>64</dim>
					<dim>16</dim>
					<dim>60</dim>
				</port>
			</output>
		</layer>
		<layer id="11" name="Mul1_4515/Fused_Mul_48254827_const" type="Const" version="opset1">
			<data element_type="f32" offset="2568" shape="128,64,3,3" size="294912"/>
			<output>
				<port id="1" precision="FP32">
					<dim>128</dim>
					<dim>64</dim>
					<dim>3</dim>
					<dim>3</dim>
				</port>
			</output>
		</layer>
		<layer id="12" name="shadow/Conv_1/Conv2D" type="Convolution" version="opset1">
			<data auto_pad="same_upper" dilations="1,1" output_padding="0,0" pads_begin="1,1" pads_end="1,1" strides="1,1"/>
			<input>
				<port id="0">
					<dim>1</dim>
					<dim>64</dim>
					<dim>16</dim>
					<dim>60</dim>
				</port>
				<port id="1">
					<dim>128</dim>
					<dim>64</dim>
					<dim>3</dim>
					<dim>3</dim>
				</port>
			</input>
			<output>
				<port id="2" precision="FP32">
					<dim>1</dim>
					<dim>128</dim>
					<dim>16</dim>
					<dim>60</dim>
				</port>
			</output>
		</layer>
		<layer id="13" name="data_add_46664671/copy_const" type="Const" version="opset1">
			<data element_type="f32" offset="297480" shape="1,128,1,1" size="512"/>
			<output>
				<port id="1" precision="FP32">
					<dim>1</dim>
					<dim>128</dim>
					<dim>1</dim>
					<dim>1</dim>
				</port>
			</output>
		</layer>
		<layer id="14" name="Add1_4516/Fused_Add_" type="Add" version="opset1">
			<input>
				<port id="0">
					<dim>1</dim>
					<dim>128</dim>
					<dim>16</dim>
					<dim>60</dim>
				</port>
				<port id="1">
					<dim>1</dim>
					<dim>128</dim>
					<dim>1</dim>
					<dim>1</dim>
				</port>
			</input>
			<output>
				<port id="2" precision="FP32">
					<dim>1</dim>
					<dim>128</dim>
					<dim>16</dim>
					<dim>60</dim>
				</port>
			</output>
		</layer>
		<layer id="15" name="shadow/BatchNorm_2/Relu" type="ReLU" version="opset1">
			<input>
				<port id="0">
					<dim>1</dim>
					<dim>128</dim>
					<dim>16</dim>
					<dim>60</dim>
				</port>
			</input>
			<output>
				<port id="1" precision="FP32">
					<dim>1</dim>
					<dim>128</dim>
					<dim>16</dim>
					<dim>60</dim>
				</port>
			</output>
		</layer>
		<layer id="16" name="shadow/MaxPool2D_1/MaxPool" type="MaxPool" version="opset1">
			<data auto_pad="valid" kernel="2,2" pads_begin="0,0" pads_end="0,0" strides="2,2"/>
			<input>
				<port id="0">
					<dim>1</dim>
					<dim>128</dim>
					<dim>16</dim>
					<dim>60</dim>
				</port>
			</input>
			<output>
				<port id="1" precision="FP32">
					<dim>1</dim>
					<dim>128</dim>
					<dim>8</dim>
					<dim>30</dim>
				</port>
			</output>
		</layer>
		<layer id="17" name="Mul1_4467/Fused_Mul_48294831_const" type="Const" version="opset1">
			<data element_type="f32" offset="297992" shape="256,128,3,3" size="1179648"/>
			<output>
				<port id="1" precision="FP32">
					<dim>256</dim>
					<dim>128</dim>
					<dim>3</dim>
					<dim>3</dim>
				</port>
			</output>
		</layer>
		<layer id="18" name="shadow/Conv_2/Conv2D" type="Convolution" version="opset1">
			<data auto_pad="same_upper" dilations="1,1" output_padding="0,0" pads_begin="1,1" pads_end="1,1" strides="1,1"/>
			<input>
				<port id="0">
					<dim>1</dim>
					<dim>128</dim>
					<dim>8</dim>
					<dim>30</dim>
				</port>
				<port id="1">
					<dim>256</dim>
					<dim>128</dim>
					<dim>3</dim>
					<dim>3</dim>
				</port>
			</input>
			<output>
				<port id="2" precision="FP32">
					<dim>1</dim>
					<dim>256</dim>
					<dim>8</dim>
					<dim>30</dim>
				</port>
			</output>
		</layer>
		<layer id="19" name="data_add_46744679/copy_const" type="Const" version="opset1">
			<data element_type="f32" offset="1477640" shape="1,256,1,1" size="1024"/>
			<output>
				<port id="1" precision="FP32">
					<dim>1</dim>
					<dim>256</dim>
					<dim>1</dim>
					<dim>1</dim>
				</port>
			</output>
		</layer>
		<layer id="20" name="Add1_4468/Fused_Add_" type="Add" version="opset1">
			<input>
				<port id="0">
					<dim>1</dim>
					<dim>256</dim>
					<dim>8</dim>
					<dim>30</dim>
				</port>
				<port id="1">
					<dim>1</dim>
					<dim>256</dim>
					<dim>1</dim>
					<dim>1</dim>
				</port>
			</input>
			<output>
				<port id="2" precision="FP32">
					<dim>1</dim>
					<dim>256</dim>
					<dim>8</dim>
					<dim>30</dim>
				</port>
			</output>
		</layer>
		<layer id="21" name="shadow/BatchNorm_3/Relu" type="ReLU" version="opset1">
			<input>
				<port id="0">
					<dim>1</dim>
					<dim>256</dim>
					<dim>8</dim>
					<dim>30</dim>
				</port>
			</input>
			<output>
				<port id="1" precision="FP32">
					<dim>1</dim>
					<dim>256</dim>
					<dim>8</dim>
					<dim>30</dim>
				</port>
			</output>
		</layer>
		<layer id="22" name="Mul1_4479/Fused_Mul_48334835_const" type="Const" version="opset1">
			<data element_type="f32" offset="1478664" shape="256,256,3,3" size="2359296"/>
			<output>
				<port id="1" precision="FP32">
					<dim>256</dim>
					<dim>256</dim>
					<dim>3</dim>
					<dim>3</dim>
				</port>
			</output>
		</layer>
		<layer id="23" name="shadow/Conv_3/Conv2D" type="Convolution" version="opset1">
			<data auto_pad="same_upper" dilations="1,1" output_padding="0,0" pads_begin="1,1" pads_end="1,1" strides="1,1"/>
			<input>
				<port id="0">
					<dim>1</dim>
					<dim>256</dim>
					<dim>8</dim>
					<dim>30</dim>
				</port>
				<port id="1">
					<dim>256</dim>
					<dim>256</dim>
					<dim>3</dim>
					<dim>3</dim>
				</port>
			</input>
			<output>
				<port id="2" precision="FP32">
					<dim>1</dim>
					<dim>256</dim>
					<dim>8</dim>
					<dim>30</dim>
				</port>
			</output>
		</layer>
		<layer id="24" name="data_add_46824687/copy_const" type="Const" version="opset1">
			<data element_type="f32" offset="3837960" shape="1,256,1,1" size="1024"/>
			<output>
				<port id="1" precision="FP32">
					<dim>1</dim>
					<dim>256</dim>
					<dim>1</dim>
					<dim>1</dim>
				</port>
			</output>
		</layer>
		<layer id="25" name="Add1_4480/Fused_Add_" type="Add" version="opset1">
			<input>
				<port id="0">
					<dim>1</dim>
					<dim>256</dim>
					<dim>8</dim>
					<dim>30</dim>
				</port>
				<port id="1">
					<dim>1</dim>
					<dim>256</dim>
					<dim>1</dim>
					<dim>1</dim>
				</port>
			</input>
			<output>
				<port id="2" precision="FP32">
					<dim>1</dim>
					<dim>256</dim>
					<dim>8</dim>
					<dim>30</dim>
				</port>
			</output>
		</layer>
		<layer id="26" name="shadow/BatchNorm_4/Relu" type="ReLU" version="opset1">
			<input>
				<port id="0">
					<dim>1</dim>
					<dim>256</dim>
					<dim>8</dim>
					<dim>30</dim>
				</port>
			</input>
			<output>
				<port id="1" precision="FP32">
					<dim>1</dim>
					<dim>256</dim>
					<dim>8</dim>
					<dim>30</dim>
				</port>
			</output>
		</layer>
		<layer id="27" name="shadow/MaxPool2D_2/MaxPool" type="MaxPool" version="opset1">
			<data auto_pad="valid" kernel="2,1" pads_begin="0,0" pads_end="0,0" strides="2,1"/>
			<input>
				<port id="0">
					<dim>1</dim>
					<dim>256</dim>
					<dim>8</dim>
					<dim>30</dim>
				</port>
			</input>
			<output>
				<port id="1" precision="FP32">
					<dim>1</dim>
					<dim>256</dim>
					<dim>4</dim>
					<dim>30</dim>
				</port>
			</output>
		</layer>
		<layer id="28" name="Mul1_4443/Fused_Mul_48374839_const" type="Const" version="opset1">
			<data element_type="f32" offset="3838984" shape="512,256,3,3" size="4718592"/>
			<output>
				<port id="1" precision="FP32">
					<dim>512</dim>
					<dim>256</dim>
					<dim>3</dim>
					<dim>3</dim>
				</port>
			</output>
		</layer>
		<layer id="29" name="shadow/Conv_4/Conv2D" type="Convolution" version="opset1">
			<data auto_pad="same_upper" dilations="1,1" output_padding="0,0" pads_begin="1,1" pads_end="1,1" strides="1,1"/>
			<input>
				<port id="0">
					<dim>1</dim>
					<dim>256</dim>
					<dim>4</dim>
					<dim>30</dim>
				</port>
				<port id="1">
					<dim>512</dim>
					<dim>256</dim>
					<dim>3</dim>
					<dim>3</dim>
				</port>
			</input>
			<output>
				<port id="2" precision="FP32">
					<dim>1</dim>
					<dim>512</dim>
					<dim>4</dim>
					<dim>30</dim>
				</port>
			</output>
		</layer>
		<layer id="30" name="data_add_46904695/copy_const" type="Const" version="opset1">
			<data element_type="f32" offset="8557576" shape="1,512,1,1" size="2048"/>
			<output>
				<port id="1" precision="FP32">
					<dim>1</dim>
					<dim>512</dim>
					<dim>1</dim>
					<dim>1</dim>
				</port>
			</output>
		</layer>
		<layer id="31" name="Add1_4444/Fused_Add_" type="Add" version="opset1">
			<input>
				<port id="0">
					<dim>1</dim>
					<dim>512</dim>
					<dim>4</dim>
					<dim>30</dim>
				</port>
				<port id="1">
					<dim>1</dim>
					<dim>512</dim>
					<dim>1</dim>
					<dim>1</dim>
				</port>
			</input>
			<output>
				<port id="2" precision="FP32">
					<dim>1</dim>
					<dim>512</dim>
					<dim>4</dim>
					<dim>30</dim>
				</port>
			</output>
		</layer>
		<layer id="32" name="shadow/BatchNorm_5/Relu" type="ReLU" version="opset1">
			<input>
				<port id="0">
					<dim>1</dim>
					<dim>512</dim>
					<dim>4</dim>
					<dim>30</dim>
				</port>
			</input>
			<output>
				<port id="1" precision="FP32">
					<dim>1</dim>
					<dim>512</dim>
					<dim>4</dim>
					<dim>30</dim>
				</port>
			</output>
		</layer>
		<layer id="33" name="Mul1_4455/Fused_Mul_48414843_const" type="Const" version="opset1">
			<data element_type="f32" offset="8559624" shape="512,512,3,3" size="9437184"/>
			<output>
				<port id="1" precision="FP32">
					<dim>512</dim>
					<dim>512</dim>
					<dim>3</dim>
					<dim>3</dim>
				</port>
			</output>
		</layer>
		<layer id="34" name="shadow/Conv_5/Conv2D" type="Convolution" version="opset1">
			<data auto_pad="same_upper" dilations="1,1" output_padding="0,0" pads_begin="1,1" pads_end="1,1" strides="1,1"/>
			<input>
				<port id="0">
					<dim>1</dim>
					<dim>512</dim>
					<dim>4</dim>
					<dim>30</dim>
				</port>
				<port id="1">
					<dim>512</dim>
					<dim>512</dim>
					<dim>3</dim>
					<dim>3</dim>
				</port>
			</input>
			<output>
				<port id="2" precision="FP32">
					<dim>1</dim>
					<dim>512</dim>
					<dim>4</dim>
					<dim>30</dim>
				</port>
			</output>
		</layer>
		<layer id="35" name="data_add_46984703/copy_const" type="Const" version="opset1">
			<data element_type="f32" offset="17996808" shape="1,512,1,1" size="2048"/>
			<output>
				<port id="1" precision="FP32">
					<dim>1</dim>
					<dim>512</dim>
					<dim>1</dim>
					<dim>1</dim>
				</port>
			</output>
		</layer>
		<layer id="36" name="Add1_4456/Fused_Add_" type="Add" version="opset1">
			<input>
				<port id="0">
					<dim>1</dim>
					<dim>512</dim>
					<dim>4</dim>
					<dim>30</dim>
				</port>
				<port id="1">
					<dim>1</dim>
					<dim>512</dim>
					<dim>1</dim>
					<dim>1</dim>
				</port>
			</input>
			<output>
				<port id="2" precision="FP32">
					<dim>1</dim>
					<dim>512</dim>
					<dim>4</dim>
					<dim>30</dim>
				</port>
			</output>
		</layer>
		<layer id="37" name="shadow/BatchNorm_6/Relu" type="ReLU" version="opset1">
			<input>
				<port id="0">
					<dim>1</dim>
					<dim>512</dim>
					<dim>4</dim>
					<dim>30</dim>
				</port>
			</input>
			<output>
				<port id="1" precision="FP32">
					<dim>1</dim>
					<dim>512</dim>
					<dim>4</dim>
					<dim>30</dim>
				</port>
			</output>
		</layer>
		<layer id="38" name="shadow/MaxPool2D_3/MaxPool" type="MaxPool" version="opset1">
			<data auto_pad="valid" kernel="2,1" pads_begin="0,0" pads_end="0,0" strides="2,1"/>
			<input>
				<port id="0">
					<dim>1</dim>
					<dim>512</dim>
					<dim>4</dim>
					<dim>30</dim>
				</port>
			</input>
			<output>
				<port id="1" precision="FP32">
					<dim>1</dim>
					<dim>512</dim>
					<dim>2</dim>
					<dim>30</dim>
				</port>
			</output>
		</layer>
		<layer id="39" name="Mul1_/Fused_Mul_48454847_const" type="Const" version="opset1">
			<data element_type="f32" offset="17998856" shape="512,512,2,2" size="4194304"/>
			<output>
				<port id="1" precision="FP32">
					<dim>512</dim>
					<dim>512</dim>
					<dim>2</dim>
					<dim>2</dim>
				</port>
			</output>
		</layer>
		<layer id="40" name="shadow/Conv_6/Conv2D" type="Convolution" version="opset1">
			<data auto_pad="same_upper" dilations="1,1" output_padding="0,0" pads_begin="0,0" pads_end="0,1" strides="2,1"/>
			<input>
				<port id="0">
					<dim>1</dim>
					<dim>512</dim>
					<dim>2</dim>
					<dim>30</dim>
				</port>
				<port id="1">
					<dim>512</dim>
					<dim>512</dim>
					<dim>2</dim>
					<dim>2</dim>
				</port>
			</input>
			<output>
				<port id="2" precision="FP32">
					<dim>1</dim>
					<dim>512</dim>
					<dim>1</dim>
					<dim>30</dim>
				</port>
			</output>
		</layer>
		<layer id="41" name="data_add_47064711/copy_const" type="Const" version="opset1">
			<data element_type="f32" offset="22193160" shape="1,512,1,1" size="2048"/>
			<output>
				<port id="1" precision="FP32">
					<dim>1</dim>
					<dim>512</dim>
					<dim>1</dim>
					<dim>1</dim>
				</port>
			</output>
		</layer>
		<layer id="42" name="Add1_/Fused_Add_" type="Add" version="opset1">
			<input>
				<port id="0">
					<dim>1</dim>
					<dim>512</dim>
					<dim>1</dim>
					<dim>30</dim>
				</port>
				<port id="1">
					<dim>1</dim>
					<dim>512</dim>
					<dim>1</dim>
					<dim>1</dim>
				</port>
			</input>
			<output>
				<port id="2" precision="FP32">
					<dim>1</dim>
					<dim>512</dim>
					<dim>1</dim>
					<dim>30</dim>
				</port>
			</output>
		</layer>
		<layer id="43" name="shadow/BatchNorm_7/Relu" type="ReLU" version="opset1">
			<input>
				<port id="0">
					<dim>1</dim>
					<dim>512</dim>
					<dim>1</dim>
					<dim>30</dim>
				</port>
			</input>
			<output>
				<port id="1" precision="FP32">
					<dim>1</dim>
					<dim>512</dim>
					<dim>1</dim>
					<dim>30</dim>
				</port>
			</output>
		</layer>
		<layer id="44" name="shadow/BatchNorm_7/Relu/Transpose/Cast_16254_const" type="Const" version="opset1">
			<data element_type="i64" offset="22195208" shape="4" size="32"/>
			<output>
				<port id="1" precision="I64">
					<dim>4</dim>
				</port>
			</output>
		</layer>
		<layer id="45" name="shadow/BatchNorm_7/Relu/Transpose" type="Transpose" version="opset1">
			<input>
				<port id="0">
					<dim>1</dim>
					<dim>512</dim>
					<dim>1</dim>
					<dim>30</dim>
				</port>
				<port id="1">
					<dim>4</dim>
				</port>
			</input>
			<output>
				<port id="2" precision="FP32">
					<dim>1</dim>
					<dim>1</dim>
					<dim>30</dim>
					<dim>512</dim>
				</port>
			</output>
		</layer>
		<layer id="46" name="shadow/Squeeze/Dims/Output_0/Data__const" type="Const" version="opset1">
			<data element_type="i64" offset="22195240" shape="1" size="8"/>
			<output>
				<port id="1" precision="I64">
					<dim>1</dim>
				</port>
			</output>
		</layer>
		<layer id="47" name="shadow/Squeeze" type="Squeeze" version="opset1">
			<input>
				<port id="0">
					<dim>1</dim>
					<dim>1</dim>
					<dim>30</dim>
					<dim>512</dim>
				</port>
				<port id="1">
					<dim>1</dim>
				</port>
			</input>
			<output>
				<port id="2" precision="FP32">
					<dim>1</dim>
					<dim>30</dim>
					<dim>512</dim>
				</port>
			</output>
		</layer>
		<layer id="48" name="shadow/LSTMLayers/encoder/stack_bidirectional_rnn/cell_0/bidirectional_rnn/fw/fw/while/Enter_4/Output_0/Data__const" type="Const" version="opset1">
			<data element_type="f32" offset="22195248" shape="1,256" size="1024"/>
			<output>
				<port id="1" precision="FP32">
					<dim>1</dim>
					<dim>256</dim>
				</port>
			</output>
		</layer>
		<layer id="49" name="shadow/LSTMLayers/encoder/stack_bidirectional_rnn/cell_0/bidirectional_rnn/fw/fw/while/Enter_3/Output_0/Data__const" type="Const" version="opset1">
			<data element_type="f32" offset="22195248" shape="1,256" size="1024"/>
			<output>
				<port id="1" precision="FP32">
					<dim>1</dim>
					<dim>256</dim>
				</port>
			</output>
		</layer>
		<layer id="50" name="shadow/LSTMLayers/encoder/stack_bidirectional_rnn/cell_0/bidirectional_rnn/fw/fw/while/LoopCond/TensorIteratorCondition_/TensorIterator" type="TensorIterator" version="opset1">
			<input>
				<port id="0">
					<dim>1</dim>
					<dim>30</dim>
					<dim>512</dim>
				</port>
				<port id="1">
					<dim>1</dim>
					<dim>256</dim>
				</port>
				<port id="2">
					<dim>1</dim>
					<dim>256</dim>
				</port>
			</input>
			<output>
				<port id="3" precision="FP32">
					<dim>1</dim>
					<dim>30</dim>
					<dim>256</dim>
				</port>
			</output>
			<port_map>
				<input external_port_id="2" internal_layer_id="4"/>
				<input external_port_id="1" internal_layer_id="3"/>
				<input axis="1" external_port_id="0" internal_layer_id="0" start="0"/>
				<output axis="1" external_port_id="3" internal_layer_id="13"/>
			</port_map>
			<back_edges>
				<edge from-layer="10" to-layer="3"/>
				<edge from-layer="9" to-layer="4"/>
			</back_edges>
			<body>
				<layers>
					<layer id="0" name="32" type="Parameter" version="opset1">
						<data element_type="f32" shape="1,1,512"/>
						<output>
							<port id="0" precision="FP32">
								<dim>1</dim>
								<dim>1</dim>
								<dim>512</dim>
							</port>
						</output>
					</layer>
					<layer id="1" name="25_const" type="Const" version="opset1">
						<data element_type="i64" offset="22195240" shape="1" size="8"/>
						<output>
							<port id="1" precision="I64">
								<dim>1</dim>
							</port>
						</output>
					</layer>
					<layer id="2" name="shadow/LSTMLayers/encoder/stack_bidirectional_rnn/cell_0/bidirectional_rnn/fw/fw/while/TensorArrayReadV3/Output_0/Data_/InputSqueeze" type="Squeeze" version="opset1">
						<input>
							<port id="0">
								<dim>1</dim>
								<dim>1</dim>
								<dim>512</dim>
							</port>
							<port id="1">
								<dim>1</dim>
							</port>
						</input>
						<output>
							<port id="2" precision="FP32">
								<dim>1</dim>
								<dim>512</dim>
							</port>
						</output>
					</layer>
					<layer id="3" name="34" type="Parameter" version="opset1">
						<data element_type="f32" shape="1,256"/>
						<output>
							<port id="0" precision="FP32">
								<dim>1</dim>
								<dim>256</dim>
							</port>
						</output>
					</layer>
					<layer id="4" name="36" type="Parameter" version="opset1">
						<data element_type="f32" shape="1,256"/>
						<output>
							<port id="0" precision="FP32">
								<dim>1</dim>
								<dim>256</dim>
							</port>
						</output>
					</layer>
					<layer id="5" name="shadow/LSTMLayers/encoder/stack_bidirectional_rnn/cell_0/bidirectional_rnn/fw/fw/while/lstm_cell/concat/LSTMCell/Split270_const" type="Const" version="opset1">
						<data element_type="f32" offset="22272260" shape="1024,512" size="2097152"/>
						<output>
							<port id="1" precision="FP32">
								<dim>1024</dim>
								<dim>512</dim>
							</port>
						</output>
					</layer>
					<layer id="6" name="shadow/LSTMLayers/encoder/stack_bidirectional_rnn/cell_0/bidirectional_rnn/fw/fw/while/lstm_cell/concat/LSTMCell/Split271_const" type="Const" version="opset1">
						<data element_type="f32" offset="24369412" shape="1024,256" size="1048576"/>
						<output>
							<port id="1" precision="FP32">
								<dim>1024</dim>
								<dim>256</dim>
							</port>
						</output>
					</layer>
					<layer id="7" name="shadow/LSTMLayers/encoder/stack_bidirectional_rnn/cell_0/bidirectional_rnn/fw/fw/while/lstm_cell/BiasAdd/Enter/Output_0/Data__const" type="Const" version="opset1">
						<data element_type="f32" offset="25417988" shape="1024" size="4096"/>
						<output>
							<port id="1" precision="FP32">
								<dim>1024</dim>
							</port>
						</output>
					</layer>
					<layer id="8" name="shadow/LSTMLayers/encoder/stack_bidirectional_rnn/cell_0/bidirectional_rnn/fw/fw/while/lstm_cell/concat/LSTMCell" type="LSTMCell" version="opset1">
						<data hidden_size="256"/>
						<input>
							<port id="0">
								<dim>1</dim>
								<dim>512</dim>
							</port>
							<port id="1">
								<dim>1</dim>
								<dim>256</dim>
							</port>
							<port id="2">
								<dim>1</dim>
								<dim>256</dim>
							</port>
							<port id="3">
								<dim>1024</dim>
								<dim>512</dim>
							</port>
							<port id="4">
								<dim>1024</dim>
								<dim>256</dim>
							</port>
							<port id="5">
								<dim>1024</dim>
							</port>
						</input>
						<output>
							<port id="6" precision="FP32">
								<dim>1</dim>
								<dim>256</dim>
							</port>
							<port id="7" precision="FP32">
								<dim>1</dim>
								<dim>256</dim>
							</port>
						</output>
					</layer>
					<layer id="9" name="shadow/LSTMLayers/encoder/stack_bidirectional_rnn/cell_0/bidirectional_rnn/fw/fw/while/lstm_cell/concat/LSTMCell/Output_1/Data_/sink_port_0" type="Result" version="opset1">
						<input>
							<port id="0">
								<dim>1</dim>
								<dim>256</dim>
							</port>
						</input>
					</layer>
					<layer id="10" name="shadow/LSTMLayers/encoder/stack_bidirectional_rnn/cell_0/bidirectional_rnn/fw/fw/while/lstm_cell/concat/LSTMCell/Output_0/Data_/sink_port_0" type="Result" version="opset1">
						<input>
							<port id="0">
								<dim>1</dim>
								<dim>256</dim>
							</port>
						</input>
					</layer>
					<layer id="11" name="28_const" type="Const" version="opset1">
						<data element_type="i64" offset="22195240" shape="1" size="8"/>
						<output>
							<port id="1" precision="I64">
								<dim>1</dim>
							</port>
						</output>
					</layer>
					<layer id="12" name="shadow/LSTMLayers/encoder/stack_bidirectional_rnn/cell_0/bidirectional_rnn/fw/fw/while/lstm_cell/concat/LSTMCell/Output_0/Data_/OutputUnsqueeze" type="Unsqueeze" version="opset1">
						<input>
							<port id="0">
								<dim>1</dim>
								<dim>256</dim>
							</port>
							<port id="1">
								<dim>1</dim>
							</port>
						</input>
						<output>
							<port id="2" precision="FP32">
								<dim>1</dim>
								<dim>1</dim>
								<dim>256</dim>
							</port>
						</output>
					</layer>
					<layer id="13" name="30/sink_port_0" type="Result" version="opset1">
						<input>
							<port id="0">
								<dim>1</dim>
								<dim>1</dim>
								<dim>256</dim>
							</port>
						</input>
					</layer>
				</layers>
				<edges>
					<edge from-layer="0" from-port="0" to-layer="2" to-port="0"/>
					<edge from-layer="1" from-port="1" to-layer="2" to-port="1"/>
					<edge from-layer="2" from-port="2" to-layer="8" to-port="0"/>
					<edge from-layer="3" from-port="0" to-layer="8" to-port="1"/>
					<edge from-layer="4" from-port="0" to-layer="8" to-port="2"/>
					<edge from-layer="5" from-port="1" to-layer="8" to-port="3"/>
					<edge from-layer="6" from-port="1" to-layer="8" to-port="4"/>
					<edge from-layer="7" from-port="1" to-layer="8" to-port="5"/>
					<edge from-layer="8" from-port="7" to-layer="9" to-port="0"/>
					<edge from-layer="8" from-port="6" to-layer="10" to-port="0"/>
					<edge from-layer="8" from-port="6" to-layer="12" to-port="0"/>
					<edge from-layer="11" from-port="1" to-layer="12" to-port="1"/>
					<edge from-layer="12" from-port="2" to-layer="13" to-port="0"/>
				</edges>
			</body>
		</layer>
		<layer id="51" name="shadow/LSTMLayers/encoder/stack_bidirectional_rnn/cell_0/bidirectional_rnn/bw/bw/while/Enter_4/Output_0/Data__const" type="Const" version="opset1">
			<data element_type="f32" offset="22195248" shape="1,256" size="1024"/>
			<output>
				<port id="1" precision="FP32">
					<dim>1</dim>
					<dim>256</dim>
				</port>
			</output>
		</layer>
		<layer id="52" name="shadow/LSTMLayers/encoder/stack_bidirectional_rnn/cell_0/bidirectional_rnn/bw/bw/while/Enter_3/Output_0/Data__const" type="Const" version="opset1">
			<data element_type="f32" offset="22195248" shape="1,256" size="1024"/>
			<output>
				<port id="1" precision="FP32">
					<dim>1</dim>
					<dim>256</dim>
				</port>
			</output>
		</layer>
		<layer id="53" name="shadow/LSTMLayers/encoder/stack_bidirectional_rnn/cell_0/bidirectional_rnn/bw/bw/while/LoopCond/TensorIteratorCondition_/TensorIterator" type="TensorIterator" version="opset1">
			<input>
				<port id="0">
					<dim>1</dim>
					<dim>30</dim>
					<dim>512</dim>
				</port>
				<port id="1">
					<dim>1</dim>
					<dim>256</dim>
				</port>
				<port id="2">
					<dim>1</dim>
					<dim>256</dim>
				</port>
			</input>
			<output>
				<port id="3" precision="FP32">
					<dim>1</dim>
					<dim>30</dim>
					<dim>256</dim>
				</port>
			</output>
			<port_map>
				<input external_port_id="2" internal_layer_id="4"/>
				<input external_port_id="1" internal_layer_id="3"/>
				<input axis="1" end="0" external_port_id="0" internal_layer_id="0" start="-1" stride="-1"/>
				<output axis="1" end="0" external_port_id="3" internal_layer_id="12" start="-1" stride="-1"/>
			</port_map>
			<back_edges>
				<edge from-layer="13" to-layer="3"/>
				<edge from-layer="9" to-layer="4"/>
			</back_edges>
			<body>
				<layers>
					<layer id="0" name="32" type="Parameter" version="opset1">
						<data element_type="f32" shape="1,1,512"/>
						<output>
							<port id="0" precision="FP32">
								<dim>1</dim>
								<dim>1</dim>
								<dim>512</dim>
							</port>
						</output>
					</layer>
					<layer id="1" name="25_const" type="Const" version="opset1">
						<data element_type="i64" offset="22195240" shape="1" size="8"/>
						<output>
							<port id="1" precision="I64">
								<dim>1</dim>
							</port>
						</output>
					</layer>
					<layer id="2" name="shadow/LSTMLayers/encoder/stack_bidirectional_rnn/cell_0/bidirectional_rnn/bw/bw/while/TensorArrayReadV3/Output_0/Data_/InputSqueeze" type="Squeeze" version="opset1">
						<input>
							<port id="0">
								<dim>1</dim>
								<dim>1</dim>
								<dim>512</dim>
							</port>
							<port id="1">
								<dim>1</dim>
							</port>
						</input>
						<output>
							<port id="2" precision="FP32">
								<dim>1</dim>
								<dim>512</dim>
							</port>
						</output>
					</layer>
					<layer id="3" name="34" type="Parameter" version="opset1">
						<data element_type="f32" shape="1,256"/>
						<output>
							<port id="0" precision="FP32">
								<dim>1</dim>
								<dim>256</dim>
							</port>
						</output>
					</layer>
					<layer id="4" name="36" type="Parameter" version="opset1">
						<data element_type="f32" shape="1,256"/>
						<output>
							<port id="0" precision="FP32">
								<dim>1</dim>
								<dim>256</dim>
							</port>
						</output>
					</layer>
					<layer id="5" name="shadow/LSTMLayers/encoder/stack_bidirectional_rnn/cell_0/bidirectional_rnn/bw/bw/while/lstm_cell/concat/LSTMCell/Split270_const" type="Const" version="opset1">
						<data element_type="f32" offset="25422084" shape="1024,512" size="2097152"/>
						<output>
							<port id="1" precision="FP32">
								<dim>1024</dim>
								<dim>512</dim>
							</port>
						</output>
					</layer>
					<layer id="6" name="shadow/LSTMLayers/encoder/stack_bidirectional_rnn/cell_0/bidirectional_rnn/bw/bw/while/lstm_cell/concat/LSTMCell/Split271_const" type="Const" version="opset1">
						<data element_type="f32" offset="27519236" shape="1024,256" size="1048576"/>
						<output>
							<port id="1" precision="FP32">
								<dim>1024</dim>
								<dim>256</dim>
							</port>
						</output>
					</layer>
					<layer id="7" name="shadow/LSTMLayers/encoder/stack_bidirectional_rnn/cell_0/bidirectional_rnn/bw/bw/while/lstm_cell/BiasAdd/Enter/Output_0/Data__const" type="Const" version="opset1">
						<data element_type="f32" offset="28567812" shape="1024" size="4096"/>
						<output>
							<port id="1" precision="FP32">
								<dim>1024</dim>
							</port>
						</output>
					</layer>
					<layer id="8" name="shadow/LSTMLayers/encoder/stack_bidirectional_rnn/cell_0/bidirectional_rnn/bw/bw/while/lstm_cell/concat/LSTMCell" type="LSTMCell" version="opset1">
						<data hidden_size="256"/>
						<input>
							<port id="0">
								<dim>1</dim>
								<dim>512</dim>
							</port>
							<port id="1">
								<dim>1</dim>
								<dim>256</dim>
							</port>
							<port id="2">
								<dim>1</dim>
								<dim>256</dim>
							</port>
							<port id="3">
								<dim>1024</dim>
								<dim>512</dim>
							</port>
							<port id="4">
								<dim>1024</dim>
								<dim>256</dim>
							</port>
							<port id="5">
								<dim>1024</dim>
							</port>
						</input>
						<output>
							<port id="6" precision="FP32">
								<dim>1</dim>
								<dim>256</dim>
							</port>
							<port id="7" precision="FP32">
								<dim>1</dim>
								<dim>256</dim>
							</port>
						</output>
					</layer>
					<layer id="9" name="shadow/LSTMLayers/encoder/stack_bidirectional_rnn/cell_0/bidirectional_rnn/bw/bw/while/lstm_cell/concat/LSTMCell/Output_1/Data_/sink_port_0" type="Result" version="opset1">
						<input>
							<port id="0">
								<dim>1</dim>
								<dim>256</dim>
							</port>
						</input>
					</layer>
					<layer id="10" name="28_const" type="Const" version="opset1">
						<data element_type="i64" offset="22195240" shape="1" size="8"/>
						<output>
							<port id="1" precision="I64">
								<dim>1</dim>
							</port>
						</output>
					</layer>
					<layer id="11" name="shadow/LSTMLayers/encoder/stack_bidirectional_rnn/cell_0/bidirectional_rnn/bw/bw/while/lstm_cell/concat/LSTMCell/Output_0/Data_/OutputUnsqueeze" type="Unsqueeze" version="opset1">
						<input>
							<port id="0">
								<dim>1</dim>
								<dim>256</dim>
							</port>
							<port id="1">
								<dim>1</dim>
							</port>
						</input>
						<output>
							<port id="2" precision="FP32">
								<dim>1</dim>
								<dim>1</dim>
								<dim>256</dim>
							</port>
						</output>
					</layer>
					<layer id="12" name="30/sink_port_0" type="Result" version="opset1">
						<input>
							<port id="0">
								<dim>1</dim>
								<dim>1</dim>
								<dim>256</dim>
							</port>
						</input>
					</layer>
					<layer id="13" name="shadow/LSTMLayers/encoder/stack_bidirectional_rnn/cell_0/bidirectional_rnn/bw/bw/while/lstm_cell/concat/LSTMCell/Output_0/Data_/sink_port_0" type="Result" version="opset1">
						<input>
							<port id="0">
								<dim>1</dim>
								<dim>256</dim>
							</port>
						</input>
					</layer>
				</layers>
				<edges>
					<edge from-layer="0" from-port="0" to-layer="2" to-port="0"/>
					<edge from-layer="1" from-port="1" to-layer="2" to-port="1"/>
					<edge from-layer="2" from-port="2" to-layer="8" to-port="0"/>
					<edge from-layer="3" from-port="0" to-layer="8" to-port="1"/>
					<edge from-layer="4" from-port="0" to-layer="8" to-port="2"/>
					<edge from-layer="5" from-port="1" to-layer="8" to-port="3"/>
					<edge from-layer="6" from-port="1" to-layer="8" to-port="4"/>
					<edge from-layer="7" from-port="1" to-layer="8" to-port="5"/>
					<edge from-layer="8" from-port="7" to-layer="9" to-port="0"/>
					<edge from-layer="8" from-port="6" to-layer="11" to-port="0"/>
					<edge from-layer="10" from-port="1" to-layer="11" to-port="1"/>
					<edge from-layer="11" from-port="2" to-layer="12" to-port="0"/>
					<edge from-layer="8" from-port="6" to-layer="13" to-port="0"/>
				</edges>
			</body>
		</layer>
		<layer id="54" name="shadow/LSTMLayers/encoder/stack_bidirectional_rnn/cell_0/concat" type="Concat" version="opset1">
			<data axis="2"/>
			<input>
				<port id="0">
					<dim>1</dim>
					<dim>30</dim>
					<dim>256</dim>
				</port>
				<port id="1">
					<dim>1</dim>
					<dim>30</dim>
					<dim>256</dim>
				</port>
			</input>
			<output>
				<port id="2" precision="FP32">
					<dim>1</dim>
					<dim>30</dim>
					<dim>512</dim>
				</port>
			</output>
		</layer>
		<layer id="55" name="shadow/LSTMLayers/encoder/stack_bidirectional_rnn/cell_1/bidirectional_rnn/fw/fw/while/Enter_3/Output_0/Data__const" type="Const" version="opset1">
			<data element_type="f32" offset="22195248" shape="1,256" size="1024"/>
			<output>
				<port id="1" precision="FP32">
					<dim>1</dim>
					<dim>256</dim>
				</port>
			</output>
		</layer>
		<layer id="56" name="shadow/LSTMLayers/encoder/stack_bidirectional_rnn/cell_1/bidirectional_rnn/fw/fw/while/Enter_4/Output_0/Data__const" type="Const" version="opset1">
			<data element_type="f32" offset="22195248" shape="1,256" size="1024"/>
			<output>
				<port id="1" precision="FP32">
					<dim>1</dim>
					<dim>256</dim>
				</port>
			</output>
		</layer>
		<layer id="57" name="shadow/LSTMLayers/encoder/stack_bidirectional_rnn/cell_1/bidirectional_rnn/fw/fw/while/LoopCond/TensorIteratorCondition_/TensorIterator" type="TensorIterator" version="opset1">
			<input>
				<port id="0">
					<dim>1</dim>
					<dim>30</dim>
					<dim>512</dim>
				</port>
				<port id="1">
					<dim>1</dim>
					<dim>256</dim>
				</port>
				<port id="2">
					<dim>1</dim>
					<dim>256</dim>
				</port>
			</input>
			<output>
				<port id="3" precision="FP32">
					<dim>1</dim>
					<dim>30</dim>
					<dim>256</dim>
				</port>
			</output>
			<port_map>
				<input external_port_id="2" internal_layer_id="3"/>
				<input axis="1" external_port_id="0" internal_layer_id="0" start="0"/>
				<input external_port_id="1" internal_layer_id="4"/>
				<output axis="1" external_port_id="3" internal_layer_id="13"/>
			</port_map>
			<back_edges>
				<edge from-layer="9" to-layer="4"/>
				<edge from-layer="10" to-layer="3"/>
			</back_edges>
			<body>
				<layers>
					<layer id="0" name="32" type="Parameter" version="opset1">
						<data element_type="f32" shape="1,1,512"/>
						<output>
							<port id="0" precision="FP32">
								<dim>1</dim>
								<dim>1</dim>
								<dim>512</dim>
							</port>
						</output>
					</layer>
					<layer id="1" name="25_const" type="Const" version="opset1">
						<data element_type="i64" offset="22195240" shape="1" size="8"/>
						<output>
							<port id="1" precision="I64">
								<dim>1</dim>
							</port>
						</output>
					</layer>
					<layer id="2" name="shadow/LSTMLayers/encoder/stack_bidirectional_rnn/cell_1/bidirectional_rnn/fw/fw/while/TensorArrayReadV3/Output_0/Data_/InputSqueeze" type="Squeeze" version="opset1">
						<input>
							<port id="0">
								<dim>1</dim>
								<dim>1</dim>
								<dim>512</dim>
							</port>
							<port id="1">
								<dim>1</dim>
							</port>
						</input>
						<output>
							<port id="2" precision="FP32">
								<dim>1</dim>
								<dim>512</dim>
							</port>
						</output>
					</layer>
					<layer id="3" name="36" type="Parameter" version="opset1">
						<data element_type="f32" shape="1,256"/>
						<output>
							<port id="0" precision="FP32">
								<dim>1</dim>
								<dim>256</dim>
							</port>
						</output>
					</layer>
					<layer id="4" name="34" type="Parameter" version="opset1">
						<data element_type="f32" shape="1,256"/>
						<output>
							<port id="0" precision="FP32">
								<dim>1</dim>
								<dim>256</dim>
							</port>
						</output>
					</layer>
					<layer id="5" name="shadow/LSTMLayers/encoder/stack_bidirectional_rnn/cell_1/bidirectional_rnn/fw/fw/while/lstm_cell/concat/LSTMCell/Split270_const" type="Const" version="opset1">
						<data element_type="f32" offset="28571908" shape="1024,512" size="2097152"/>
						<output>
							<port id="1" precision="FP32">
								<dim>1024</dim>
								<dim>512</dim>
							</port>
						</output>
					</layer>
					<layer id="6" name="shadow/LSTMLayers/encoder/stack_bidirectional_rnn/cell_1/bidirectional_rnn/fw/fw/while/lstm_cell/concat/LSTMCell/Split271_const" type="Const" version="opset1">
						<data element_type="f32" offset="30669060" shape="1024,256" size="1048576"/>
						<output>
							<port id="1" precision="FP32">
								<dim>1024</dim>
								<dim>256</dim>
							</port>
						</output>
					</layer>
					<layer id="7" name="shadow/LSTMLayers/encoder/stack_bidirectional_rnn/cell_1/bidirectional_rnn/fw/fw/while/lstm_cell/BiasAdd/Enter/Output_0/Data__const" type="Const" version="opset1">
						<data element_type="f32" offset="31717636" shape="1024" size="4096"/>
						<output>
							<port id="1" precision="FP32">
								<dim>1024</dim>
							</port>
						</output>
					</layer>
					<layer id="8" name="shadow/LSTMLayers/encoder/stack_bidirectional_rnn/cell_1/bidirectional_rnn/fw/fw/while/lstm_cell/concat/LSTMCell" type="LSTMCell" version="opset1">
						<data hidden_size="256"/>
						<input>
							<port id="0">
								<dim>1</dim>
								<dim>512</dim>
							</port>
							<port id="1">
								<dim>1</dim>
								<dim>256</dim>
							</port>
							<port id="2">
								<dim>1</dim>
								<dim>256</dim>
							</port>
							<port id="3">
								<dim>1024</dim>
								<dim>512</dim>
							</port>
							<port id="4">
								<dim>1024</dim>
								<dim>256</dim>
							</port>
							<port id="5">
								<dim>1024</dim>
							</port>
						</input>
						<output>
							<port id="6" precision="FP32">
								<dim>1</dim>
								<dim>256</dim>
							</port>
							<port id="7" precision="FP32">
								<dim>1</dim>
								<dim>256</dim>
							</port>
						</output>
					</layer>
					<layer id="9" name="shadow/LSTMLayers/encoder/stack_bidirectional_rnn/cell_1/bidirectional_rnn/fw/fw/while/lstm_cell/concat/LSTMCell/Output_1/Data_/sink_port_0" type="Result" version="opset1">
						<input>
							<port id="0">
								<dim>1</dim>
								<dim>256</dim>
							</port>
						</input>
					</layer>
					<layer id="10" name="shadow/LSTMLayers/encoder/stack_bidirectional_rnn/cell_1/bidirectional_rnn/fw/fw/while/lstm_cell/concat/LSTMCell/Output_0/Data_/sink_port_0" type="Result" version="opset1">
						<input>
							<port id="0">
								<dim>1</dim>
								<dim>256</dim>
							</port>
						</input>
					</layer>
					<layer id="11" name="28_const" type="Const" version="opset1">
						<data element_type="i64" offset="22195240" shape="1" size="8"/>
						<output>
							<port id="1" precision="I64">
								<dim>1</dim>
							</port>
						</output>
					</layer>
					<layer id="12" name="shadow/LSTMLayers/encoder/stack_bidirectional_rnn/cell_1/bidirectional_rnn/fw/fw/while/lstm_cell/concat/LSTMCell/Output_0/Data_/OutputUnsqueeze" type="Unsqueeze" version="opset1">
						<input>
							<port id="0">
								<dim>1</dim>
								<dim>256</dim>
							</port>
							<port id="1">
								<dim>1</dim>
							</port>
						</input>
						<output>
							<port id="2" precision="FP32">
								<dim>1</dim>
								<dim>1</dim>
								<dim>256</dim>
							</port>
						</output>
					</layer>
					<layer id="13" name="30/sink_port_0" type="Result" version="opset1">
						<input>
							<port id="0">
								<dim>1</dim>
								<dim>1</dim>
								<dim>256</dim>
							</port>
						</input>
					</layer>
				</layers>
				<edges>
					<edge from-layer="0" from-port="0" to-layer="2" to-port="0"/>
					<edge from-layer="1" from-port="1" to-layer="2" to-port="1"/>
					<edge from-layer="2" from-port="2" to-layer="8" to-port="0"/>
					<edge from-layer="3" from-port="0" to-layer="8" to-port="1"/>
					<edge from-layer="4" from-port="0" to-layer="8" to-port="2"/>
					<edge from-layer="5" from-port="1" to-layer="8" to-port="3"/>
					<edge from-layer="6" from-port="1" to-layer="8" to-port="4"/>
					<edge from-layer="7" from-port="1" to-layer="8" to-port="5"/>
					<edge from-layer="8" from-port="7" to-layer="9" to-port="0"/>
					<edge from-layer="8" from-port="6" to-layer="10" to-port="0"/>
					<edge from-layer="8" from-port="6" to-layer="12" to-port="0"/>
					<edge from-layer="11" from-port="1" to-layer="12" to-port="1"/>
					<edge from-layer="12" from-port="2" to-layer="13" to-port="0"/>
				</edges>
			</body>
		</layer>
		<layer id="58" name="shadow/LSTMLayers/encoder/stack_bidirectional_rnn/cell_1/bidirectional_rnn/bw/bw/while/Enter_4/Output_0/Data__const" type="Const" version="opset1">
			<data element_type="f32" offset="22195248" shape="1,256" size="1024"/>
			<output>
				<port id="1" precision="FP32">
					<dim>1</dim>
					<dim>256</dim>
				</port>
			</output>
		</layer>
		<layer id="59" name="shadow/LSTMLayers/encoder/stack_bidirectional_rnn/cell_1/bidirectional_rnn/bw/bw/while/Enter_3/Output_0/Data__const" type="Const" version="opset1">
			<data element_type="f32" offset="22195248" shape="1,256" size="1024"/>
			<output>
				<port id="1" precision="FP32">
					<dim>1</dim>
					<dim>256</dim>
				</port>
			</output>
		</layer>
		<layer id="60" name="shadow/LSTMLayers/encoder/stack_bidirectional_rnn/cell_1/bidirectional_rnn/bw/bw/while/LoopCond/TensorIteratorCondition_/TensorIterator" type="TensorIterator" version="opset1">
			<input>
				<port id="0">
					<dim>1</dim>
					<dim>30</dim>
					<dim>512</dim>
				</port>
				<port id="1">
					<dim>1</dim>
					<dim>256</dim>
				</port>
				<port id="2">
					<dim>1</dim>
					<dim>256</dim>
				</port>
			</input>
			<output>
				<port id="3" precision="FP32">
					<dim>1</dim>
					<dim>30</dim>
					<dim>256</dim>
				</port>
			</output>
			<port_map>
				<input external_port_id="2" internal_layer_id="4"/>
				<input external_port_id="1" internal_layer_id="3"/>
				<input axis="1" end="0" external_port_id="0" internal_layer_id="0" start="-1" stride="-1"/>
				<output axis="1" end="0" external_port_id="3" internal_layer_id="12" start="-1" stride="-1"/>
			</port_map>
			<back_edges>
				<edge from-layer="13" to-layer="3"/>
				<edge from-layer="9" to-layer="4"/>
			</back_edges>
			<body>
				<layers>
					<layer id="0" name="32" type="Parameter" version="opset1">
						<data element_type="f32" shape="1,1,512"/>
						<output>
							<port id="0" precision="FP32">
								<dim>1</dim>
								<dim>1</dim>
								<dim>512</dim>
							</port>
						</output>
					</layer>
					<layer id="1" name="25_const" type="Const" version="opset1">
						<data element_type="i64" offset="22195240" shape="1" size="8"/>
						<output>
							<port id="1" precision="I64">
								<dim>1</dim>
							</port>
						</output>
					</layer>
					<layer id="2" name="shadow/LSTMLayers/encoder/stack_bidirectional_rnn/cell_1/bidirectional_rnn/bw/bw/while/TensorArrayReadV3/Output_0/Data_/InputSqueeze" type="Squeeze" version="opset1">
						<input>
							<port id="0">
								<dim>1</dim>
								<dim>1</dim>
								<dim>512</dim>
							</port>
							<port id="1">
								<dim>1</dim>
							</port>
						</input>
						<output>
							<port id="2" precision="FP32">
								<dim>1</dim>
								<dim>512</dim>
							</port>
						</output>
					</layer>
					<layer id="3" name="34" type="Parameter" version="opset1">
						<data element_type="f32" shape="1,256"/>
						<output>
							<port id="0" precision="FP32">
								<dim>1</dim>
								<dim>256</dim>
							</port>
						</output>
					</layer>
					<layer id="4" name="36" type="Parameter" version="opset1">
						<data element_type="f32" shape="1,256"/>
						<output>
							<port id="0" precision="FP32">
								<dim>1</dim>
								<dim>256</dim>
							</port>
						</output>
					</layer>
					<layer id="5" name="shadow/LSTMLayers/encoder/stack_bidirectional_rnn/cell_1/bidirectional_rnn/bw/bw/while/lstm_cell/concat/LSTMCell/Split270_const" type="Const" version="opset1">
						<data element_type="f32" offset="31721732" shape="1024,512" size="2097152"/>
						<output>
							<port id="1" precision="FP32">
								<dim>1024</dim>
								<dim>512</dim>
							</port>
						</output>
					</layer>
					<layer id="6" name="shadow/LSTMLayers/encoder/stack_bidirectional_rnn/cell_1/bidirectional_rnn/bw/bw/while/lstm_cell/concat/LSTMCell/Split271_const" type="Const" version="opset1">
						<data element_type="f32" offset="33818884" shape="1024,256" size="1048576"/>
						<output>
							<port id="1" precision="FP32">
								<dim>1024</dim>
								<dim>256</dim>
							</port>
						</output>
					</layer>
					<layer id="7" name="shadow/LSTMLayers/encoder/stack_bidirectional_rnn/cell_1/bidirectional_rnn/bw/bw/while/lstm_cell/BiasAdd/Enter/Output_0/Data__const" type="Const" version="opset1">
						<data element_type="f32" offset="34867460" shape="1024" size="4096"/>
						<output>
							<port id="1" precision="FP32">
								<dim>1024</dim>
							</port>
						</output>
					</layer>
					<layer id="8" name="shadow/LSTMLayers/encoder/stack_bidirectional_rnn/cell_1/bidirectional_rnn/bw/bw/while/lstm_cell/concat/LSTMCell" type="LSTMCell" version="opset1">
						<data hidden_size="256"/>
						<input>
							<port id="0">
								<dim>1</dim>
								<dim>512</dim>
							</port>
							<port id="1">
								<dim>1</dim>
								<dim>256</dim>
							</port>
							<port id="2">
								<dim>1</dim>
								<dim>256</dim>
							</port>
							<port id="3">
								<dim>1024</dim>
								<dim>512</dim>
							</port>
							<port id="4">
								<dim>1024</dim>
								<dim>256</dim>
							</port>
							<port id="5">
								<dim>1024</dim>
							</port>
						</input>
						<output>
							<port id="6" precision="FP32">
								<dim>1</dim>
								<dim>256</dim>
							</port>
							<port id="7" precision="FP32">
								<dim>1</dim>
								<dim>256</dim>
							</port>
						</output>
					</layer>
					<layer id="9" name="shadow/LSTMLayers/encoder/stack_bidirectional_rnn/cell_1/bidirectional_rnn/bw/bw/while/lstm_cell/concat/LSTMCell/Output_1/Data_/sink_port_0" type="Result" version="opset1">
						<input>
							<port id="0">
								<dim>1</dim>
								<dim>256</dim>
							</port>
						</input>
					</layer>
					<layer id="10" name="28_const" type="Const" version="opset1">
						<data element_type="i64" offset="22195240" shape="1" size="8"/>
						<output>
							<port id="1" precision="I64">
								<dim>1</dim>
							</port>
						</output>
					</layer>
					<layer id="11" name="shadow/LSTMLayers/encoder/stack_bidirectional_rnn/cell_1/bidirectional_rnn/bw/bw/while/lstm_cell/concat/LSTMCell/Output_0/Data_/OutputUnsqueeze" type="Unsqueeze" version="opset1">
						<input>
							<port id="0">
								<dim>1</dim>
								<dim>256</dim>
							</port>
							<port id="1">
								<dim>1</dim>
							</port>
						</input>
						<output>
							<port id="2" precision="FP32">
								<dim>1</dim>
								<dim>1</dim>
								<dim>256</dim>
							</port>
						</output>
					</layer>
					<layer id="12" name="30/sink_port_0" type="Result" version="opset1">
						<input>
							<port id="0">
								<dim>1</dim>
								<dim>1</dim>
								<dim>256</dim>
							</port>
						</input>
					</layer>
					<layer id="13" name="shadow/LSTMLayers/encoder/stack_bidirectional_rnn/cell_1/bidirectional_rnn/bw/bw/while/lstm_cell/concat/LSTMCell/Output_0/Data_/sink_port_0" type="Result" version="opset1">
						<input>
							<port id="0">
								<dim>1</dim>
								<dim>256</dim>
							</port>
						</input>
					</layer>
				</layers>
				<edges>
					<edge from-layer="0" from-port="0" to-layer="2" to-port="0"/>
					<edge from-layer="1" from-port="1" to-layer="2" to-port="1"/>
					<edge from-layer="2" from-port="2" to-layer="8" to-port="0"/>
					<edge from-layer="3" from-port="0" to-layer="8" to-port="1"/>
					<edge from-layer="4" from-port="0" to-layer="8" to-port="2"/>
					<edge from-layer="5" from-port="1" to-layer="8" to-port="3"/>
					<edge from-layer="6" from-port="1" to-layer="8" to-port="4"/>
					<edge from-layer="7" from-port="1" to-layer="8" to-port="5"/>
					<edge from-layer="8" from-port="7" to-layer="9" to-port="0"/>
					<edge from-layer="8" from-port="6" to-layer="11" to-port="0"/>
					<edge from-layer="10" from-port="1" to-layer="11" to-port="1"/>
					<edge from-layer="11" from-port="2" to-layer="12" to-port="0"/>
					<edge from-layer="8" from-port="6" to-layer="13" to-port="0"/>
				</edges>
			</body>
		</layer>
		<layer id="61" name="shadow/LSTMLayers/encoder/stack_bidirectional_rnn/cell_1/concat" type="Concat" version="opset1">
			<data axis="2"/>
			<input>
				<port id="0">
					<dim>1</dim>
					<dim>30</dim>
					<dim>256</dim>
				</port>
				<port id="1">
					<dim>1</dim>
					<dim>30</dim>
					<dim>256</dim>
				</port>
			</input>
			<output>
				<port id="2" precision="FP32">
					<dim>1</dim>
					<dim>30</dim>
					<dim>512</dim>
				</port>
			</output>
		</layer>
		<layer id="62" name="shadow/LSTMLayers/decoder/stack_bidirectional_rnn/cell_0/bidirectional_rnn/fw/fw/while/Enter_4/Output_0/Data__const" type="Const" version="opset1">
			<data element_type="f32" offset="22195248" shape="1,256" size="1024"/>
			<output>
				<port id="1" precision="FP32">
					<dim>1</dim>
					<dim>256</dim>
				</port>
			</output>
		</layer>
		<layer id="63" name="shadow/LSTMLayers/decoder/stack_bidirectional_rnn/cell_0/bidirectional_rnn/fw/fw/while/Enter_3/Output_0/Data__const" type="Const" version="opset1">
			<data element_type="f32" offset="22195248" shape="1,256" size="1024"/>
			<output>
				<port id="1" precision="FP32">
					<dim>1</dim>
					<dim>256</dim>
				</port>
			</output>
		</layer>
		<layer id="64" name="shadow/LSTMLayers/decoder/stack_bidirectional_rnn/cell_0/bidirectional_rnn/fw/fw/while/LoopCond/TensorIteratorCondition_/TensorIterator" type="TensorIterator" version="opset1">
			<input>
				<port id="0">
					<dim>1</dim>
					<dim>30</dim>
					<dim>512</dim>
				</port>
				<port id="1">
					<dim>1</dim>
					<dim>256</dim>
				</port>
				<port id="2">
					<dim>1</dim>
					<dim>256</dim>
				</port>
			</input>
			<output>
				<port id="3" precision="FP32">
					<dim>1</dim>
					<dim>30</dim>
					<dim>256</dim>
				</port>
			</output>
			<port_map>
				<input external_port_id="2" internal_layer_id="4"/>
				<input external_port_id="1" internal_layer_id="3"/>
				<input axis="1" external_port_id="0" internal_layer_id="0" start="0"/>
				<output axis="1" external_port_id="3" internal_layer_id="12"/>
			</port_map>
			<back_edges>
				<edge from-layer="13" to-layer="3"/>
				<edge from-layer="9" to-layer="4"/>
			</back_edges>
			<body>
				<layers>
					<layer id="0" name="32" type="Parameter" version="opset1">
						<data element_type="f32" shape="1,1,512"/>
						<output>
							<port id="0" precision="FP32">
								<dim>1</dim>
								<dim>1</dim>
								<dim>512</dim>
							</port>
						</output>
					</layer>
					<layer id="1" name="25_const" type="Const" version="opset1">
						<data element_type="i64" offset="22195240" shape="1" size="8"/>
						<output>
							<port id="1" precision="I64">
								<dim>1</dim>
							</port>
						</output>
					</layer>
					<layer id="2" name="shadow/LSTMLayers/decoder/stack_bidirectional_rnn/cell_0/bidirectional_rnn/fw/fw/while/TensorArrayReadV3/Output_0/Data_/InputSqueeze" type="Squeeze" version="opset1">
						<input>
							<port id="0">
								<dim>1</dim>
								<dim>1</dim>
								<dim>512</dim>
							</port>
							<port id="1">
								<dim>1</dim>
							</port>
						</input>
						<output>
							<port id="2" precision="FP32">
								<dim>1</dim>
								<dim>512</dim>
							</port>
						</output>
					</layer>
					<layer id="3" name="34" type="Parameter" version="opset1">
						<data element_type="f32" shape="1,256"/>
						<output>
							<port id="0" precision="FP32">
								<dim>1</dim>
								<dim>256</dim>
							</port>
						</output>
					</layer>
					<layer id="4" name="36" type="Parameter" version="opset1">
						<data element_type="f32" shape="1,256"/>
						<output>
							<port id="0" precision="FP32">
								<dim>1</dim>
								<dim>256</dim>
							</port>
						</output>
					</layer>
					<layer id="5" name="shadow/LSTMLayers/decoder/stack_bidirectional_rnn/cell_0/bidirectional_rnn/fw/fw/while/lstm_cell/concat/LSTMCell/Split270_const" type="Const" version="opset1">
						<data element_type="f32" offset="34871556" shape="1024,512" size="2097152"/>
						<output>
							<port id="1" precision="FP32">
								<dim>1024</dim>
								<dim>512</dim>
							</port>
						</output>
					</layer>
					<layer id="6" name="shadow/LSTMLayers/decoder/stack_bidirectional_rnn/cell_0/bidirectional_rnn/fw/fw/while/lstm_cell/concat/LSTMCell/Split271_const" type="Const" version="opset1">
						<data element_type="f32" offset="36968708" shape="1024,256" size="1048576"/>
						<output>
							<port id="1" precision="FP32">
								<dim>1024</dim>
								<dim>256</dim>
							</port>
						</output>
					</layer>
					<layer id="7" name="shadow/LSTMLayers/decoder/stack_bidirectional_rnn/cell_0/bidirectional_rnn/fw/fw/while/lstm_cell/BiasAdd/Enter/Output_0/Data__const" type="Const" version="opset1">
						<data element_type="f32" offset="38017284" shape="1024" size="4096"/>
						<output>
							<port id="1" precision="FP32">
								<dim>1024</dim>
							</port>
						</output>
					</layer>
					<layer id="8" name="shadow/LSTMLayers/decoder/stack_bidirectional_rnn/cell_0/bidirectional_rnn/fw/fw/while/lstm_cell/concat/LSTMCell" type="LSTMCell" version="opset1">
						<data hidden_size="256"/>
						<input>
							<port id="0">
								<dim>1</dim>
								<dim>512</dim>
							</port>
							<port id="1">
								<dim>1</dim>
								<dim>256</dim>
							</port>
							<port id="2">
								<dim>1</dim>
								<dim>256</dim>
							</port>
							<port id="3">
								<dim>1024</dim>
								<dim>512</dim>
							</port>
							<port id="4">
								<dim>1024</dim>
								<dim>256</dim>
							</port>
							<port id="5">
								<dim>1024</dim>
							</port>
						</input>
						<output>
							<port id="6" precision="FP32">
								<dim>1</dim>
								<dim>256</dim>
							</port>
							<port id="7" precision="FP32">
								<dim>1</dim>
								<dim>256</dim>
							</port>
						</output>
					</layer>
					<layer id="9" name="shadow/LSTMLayers/decoder/stack_bidirectional_rnn/cell_0/bidirectional_rnn/fw/fw/while/lstm_cell/concat/LSTMCell/Output_1/Data_/sink_port_0" type="Result" version="opset1">
						<input>
							<port id="0">
								<dim>1</dim>
								<dim>256</dim>
							</port>
						</input>
					</layer>
					<layer id="10" name="28_const" type="Const" version="opset1">
						<data element_type="i64" offset="22195240" shape="1" size="8"/>
						<output>
							<port id="1" precision="I64">
								<dim>1</dim>
							</port>
						</output>
					</layer>
					<layer id="11" name="shadow/LSTMLayers/decoder/stack_bidirectional_rnn/cell_0/bidirectional_rnn/fw/fw/while/lstm_cell/concat/LSTMCell/Output_0/Data_/OutputUnsqueeze" type="Unsqueeze" version="opset1">
						<input>
							<port id="0">
								<dim>1</dim>
								<dim>256</dim>
							</port>
							<port id="1">
								<dim>1</dim>
							</port>
						</input>
						<output>
							<port id="2" precision="FP32">
								<dim>1</dim>
								<dim>1</dim>
								<dim>256</dim>
							</port>
						</output>
					</layer>
					<layer id="12" name="30/sink_port_0" type="Result" version="opset1">
						<input>
							<port id="0">
								<dim>1</dim>
								<dim>1</dim>
								<dim>256</dim>
							</port>
						</input>
					</layer>
					<layer id="13" name="shadow/LSTMLayers/decoder/stack_bidirectional_rnn/cell_0/bidirectional_rnn/fw/fw/while/lstm_cell/concat/LSTMCell/Output_0/Data_/sink_port_0" type="Result" version="opset1">
						<input>
							<port id="0">
								<dim>1</dim>
								<dim>256</dim>
							</port>
						</input>
					</layer>
				</layers>
				<edges>
					<edge from-layer="0" from-port="0" to-layer="2" to-port="0"/>
					<edge from-layer="1" from-port="1" to-layer="2" to-port="1"/>
					<edge from-layer="2" from-port="2" to-layer="8" to-port="0"/>
					<edge from-layer="3" from-port="0" to-layer="8" to-port="1"/>
					<edge from-layer="4" from-port="0" to-layer="8" to-port="2"/>
					<edge from-layer="5" from-port="1" to-layer="8" to-port="3"/>
					<edge from-layer="6" from-port="1" to-layer="8" to-port="4"/>
					<edge from-layer="7" from-port="1" to-layer="8" to-port="5"/>
					<edge from-layer="8" from-port="7" to-layer="9" to-port="0"/>
					<edge from-layer="8" from-port="6" to-layer="11" to-port="0"/>
					<edge from-layer="10" from-port="1" to-layer="11" to-port="1"/>
					<edge from-layer="11" from-port="2" to-layer="12" to-port="0"/>
					<edge from-layer="8" from-port="6" to-layer="13" to-port="0"/>
				</edges>
			</body>
		</layer>
		<layer id="65" name="shadow/LSTMLayers/decoder/stack_bidirectional_rnn/cell_0/bidirectional_rnn/bw/bw/while/Enter_4/Output_0/Data__const" type="Const" version="opset1">
			<data element_type="f32" offset="22195248" shape="1,256" size="1024"/>
			<output>
				<port id="1" precision="FP32">
					<dim>1</dim>
					<dim>256</dim>
				</port>
			</output>
		</layer>
		<layer id="66" name="shadow/LSTMLayers/decoder/stack_bidirectional_rnn/cell_0/bidirectional_rnn/bw/bw/while/Enter_3/Output_0/Data__const" type="Const" version="opset1">
			<data element_type="f32" offset="22195248" shape="1,256" size="1024"/>
			<output>
				<port id="1" precision="FP32">
					<dim>1</dim>
					<dim>256</dim>
				</port>
			</output>
		</layer>
		<layer id="67" name="shadow/LSTMLayers/decoder/stack_bidirectional_rnn/cell_0/bidirectional_rnn/bw/bw/while/LoopCond/TensorIteratorCondition_/TensorIterator" type="TensorIterator" version="opset1">
			<input>
				<port id="0">
					<dim>1</dim>
					<dim>30</dim>
					<dim>512</dim>
				</port>
				<port id="1">
					<dim>1</dim>
					<dim>256</dim>
				</port>
				<port id="2">
					<dim>1</dim>
					<dim>256</dim>
				</port>
			</input>
			<output>
				<port id="3" precision="FP32">
					<dim>1</dim>
					<dim>30</dim>
					<dim>256</dim>
				</port>
			</output>
			<port_map>
				<input external_port_id="2" internal_layer_id="4"/>
				<input external_port_id="1" internal_layer_id="3"/>
				<input axis="1" end="0" external_port_id="0" internal_layer_id="0" start="-1" stride="-1"/>
				<output axis="1" end="0" external_port_id="3" internal_layer_id="12" start="-1" stride="-1"/>
			</port_map>
			<back_edges>
				<edge from-layer="13" to-layer="3"/>
				<edge from-layer="9" to-layer="4"/>
			</back_edges>
			<body>
				<layers>
					<layer id="0" name="32" type="Parameter" version="opset1">
						<data element_type="f32" shape="1,1,512"/>
						<output>
							<port id="0" precision="FP32">
								<dim>1</dim>
								<dim>1</dim>
								<dim>512</dim>
							</port>
						</output>
					</layer>
					<layer id="1" name="25_const" type="Const" version="opset1">
						<data element_type="i64" offset="22195240" shape="1" size="8"/>
						<output>
							<port id="1" precision="I64">
								<dim>1</dim>
							</port>
						</output>
					</layer>
					<layer id="2" name="shadow/LSTMLayers/decoder/stack_bidirectional_rnn/cell_0/bidirectional_rnn/bw/bw/while/TensorArrayReadV3/Output_0/Data_/InputSqueeze" type="Squeeze" version="opset1">
						<input>
							<port id="0">
								<dim>1</dim>
								<dim>1</dim>
								<dim>512</dim>
							</port>
							<port id="1">
								<dim>1</dim>
							</port>
						</input>
						<output>
							<port id="2" precision="FP32">
								<dim>1</dim>
								<dim>512</dim>
							</port>
						</output>
					</layer>
					<layer id="3" name="34" type="Parameter" version="opset1">
						<data element_type="f32" shape="1,256"/>
						<output>
							<port id="0" precision="FP32">
								<dim>1</dim>
								<dim>256</dim>
							</port>
						</output>
					</layer>
					<layer id="4" name="36" type="Parameter" version="opset1">
						<data element_type="f32" shape="1,256"/>
						<output>
							<port id="0" precision="FP32">
								<dim>1</dim>
								<dim>256</dim>
							</port>
						</output>
					</layer>
					<layer id="5" name="shadow/LSTMLayers/decoder/stack_bidirectional_rnn/cell_0/bidirectional_rnn/bw/bw/while/lstm_cell/concat/LSTMCell/Split270_const" type="Const" version="opset1">
						<data element_type="f32" offset="38021380" shape="1024,512" size="2097152"/>
						<output>
							<port id="1" precision="FP32">
								<dim>1024</dim>
								<dim>512</dim>
							</port>
						</output>
					</layer>
					<layer id="6" name="shadow/LSTMLayers/decoder/stack_bidirectional_rnn/cell_0/bidirectional_rnn/bw/bw/while/lstm_cell/concat/LSTMCell/Split271_const" type="Const" version="opset1">
						<data element_type="f32" offset="40118532" shape="1024,256" size="1048576"/>
						<output>
							<port id="1" precision="FP32">
								<dim>1024</dim>
								<dim>256</dim>
							</port>
						</output>
					</layer>
					<layer id="7" name="shadow/LSTMLayers/decoder/stack_bidirectional_rnn/cell_0/bidirectional_rnn/bw/bw/while/lstm_cell/BiasAdd/Enter/Output_0/Data__const" type="Const" version="opset1">
						<data element_type="f32" offset="41167108" shape="1024" size="4096"/>
						<output>
							<port id="1" precision="FP32">
								<dim>1024</dim>
							</port>
						</output>
					</layer>
					<layer id="8" name="shadow/LSTMLayers/decoder/stack_bidirectional_rnn/cell_0/bidirectional_rnn/bw/bw/while/lstm_cell/concat/LSTMCell" type="LSTMCell" version="opset1">
						<data hidden_size="256"/>
						<input>
							<port id="0">
								<dim>1</dim>
								<dim>512</dim>
							</port>
							<port id="1">
								<dim>1</dim>
								<dim>256</dim>
							</port>
							<port id="2">
								<dim>1</dim>
								<dim>256</dim>
							</port>
							<port id="3">
								<dim>1024</dim>
								<dim>512</dim>
							</port>
							<port id="4">
								<dim>1024</dim>
								<dim>256</dim>
							</port>
							<port id="5">
								<dim>1024</dim>
							</port>
						</input>
						<output>
							<port id="6" precision="FP32">
								<dim>1</dim>
								<dim>256</dim>
							</port>
							<port id="7" precision="FP32">
								<dim>1</dim>
								<dim>256</dim>
							</port>
						</output>
					</layer>
					<layer id="9" name="shadow/LSTMLayers/decoder/stack_bidirectional_rnn/cell_0/bidirectional_rnn/bw/bw/while/lstm_cell/concat/LSTMCell/Output_1/Data_/sink_port_0" type="Result" version="opset1">
						<input>
							<port id="0">
								<dim>1</dim>
								<dim>256</dim>
							</port>
						</input>
					</layer>
					<layer id="10" name="28_const" type="Const" version="opset1">
						<data element_type="i64" offset="22195240" shape="1" size="8"/>
						<output>
							<port id="1" precision="I64">
								<dim>1</dim>
							</port>
						</output>
					</layer>
					<layer id="11" name="shadow/LSTMLayers/decoder/stack_bidirectional_rnn/cell_0/bidirectional_rnn/bw/bw/while/lstm_cell/concat/LSTMCell/Output_0/Data_/OutputUnsqueeze" type="Unsqueeze" version="opset1">
						<input>
							<port id="0">
								<dim>1</dim>
								<dim>256</dim>
							</port>
							<port id="1">
								<dim>1</dim>
							</port>
						</input>
						<output>
							<port id="2" precision="FP32">
								<dim>1</dim>
								<dim>1</dim>
								<dim>256</dim>
							</port>
						</output>
					</layer>
					<layer id="12" name="30/sink_port_0" type="Result" version="opset1">
						<input>
							<port id="0">
								<dim>1</dim>
								<dim>1</dim>
								<dim>256</dim>
							</port>
						</input>
					</layer>
					<layer id="13" name="shadow/LSTMLayers/decoder/stack_bidirectional_rnn/cell_0/bidirectional_rnn/bw/bw/while/lstm_cell/concat/LSTMCell/Output_0/Data_/sink_port_0" type="Result" version="opset1">
						<input>
							<port id="0">
								<dim>1</dim>
								<dim>256</dim>
							</port>
						</input>
					</layer>
				</layers>
				<edges>
					<edge from-layer="0" from-port="0" to-layer="2" to-port="0"/>
					<edge from-layer="1" from-port="1" to-layer="2" to-port="1"/>
					<edge from-layer="2" from-port="2" to-layer="8" to-port="0"/>
					<edge from-layer="3" from-port="0" to-layer="8" to-port="1"/>
					<edge from-layer="4" from-port="0" to-layer="8" to-port="2"/>
					<edge from-layer="5" from-port="1" to-layer="8" to-port="3"/>
					<edge from-layer="6" from-port="1" to-layer="8" to-port="4"/>
					<edge from-layer="7" from-port="1" to-layer="8" to-port="5"/>
					<edge from-layer="8" from-port="7" to-layer="9" to-port="0"/>
					<edge from-layer="8" from-port="6" to-layer="11" to-port="0"/>
					<edge from-layer="10" from-port="1" to-layer="11" to-port="1"/>
					<edge from-layer="11" from-port="2" to-layer="12" to-port="0"/>
					<edge from-layer="8" from-port="6" to-layer="13" to-port="0"/>
				</edges>
			</body>
		</layer>
		<layer id="68" name="shadow/LSTMLayers/decoder/stack_bidirectional_rnn/cell_0/concat" type="Concat" version="opset1">
			<data axis="2"/>
			<input>
				<port id="0">
					<dim>1</dim>
					<dim>30</dim>
					<dim>256</dim>
				</port>
				<port id="1">
					<dim>1</dim>
					<dim>30</dim>
					<dim>256</dim>
				</port>
			</input>
			<output>
				<port id="2" precision="FP32">
					<dim>1</dim>
					<dim>30</dim>
					<dim>512</dim>
				</port>
			</output>
		</layer>
		<layer id="69" name="shadow/LSTMLayers/decoder/stack_bidirectional_rnn/cell_1/bidirectional_rnn/fw/fw/while/Enter_4/Output_0/Data__const" type="Const" version="opset1">
			<data element_type="f32" offset="22195248" shape="1,256" size="1024"/>
			<output>
				<port id="1" precision="FP32">
					<dim>1</dim>
					<dim>256</dim>
				</port>
			</output>
		</layer>
		<layer id="70" name="shadow/LSTMLayers/decoder/stack_bidirectional_rnn/cell_1/bidirectional_rnn/fw/fw/while/Enter_3/Output_0/Data__const" type="Const" version="opset1">
			<data element_type="f32" offset="22195248" shape="1,256" size="1024"/>
			<output>
				<port id="1" precision="FP32">
					<dim>1</dim>
					<dim>256</dim>
				</port>
			</output>
		</layer>
		<layer id="71" name="shadow/LSTMLayers/decoder/stack_bidirectional_rnn/cell_1/bidirectional_rnn/fw/fw/while/LoopCond/TensorIteratorCondition_/TensorIterator" type="TensorIterator" version="opset1">
			<input>
				<port id="0">
					<dim>1</dim>
					<dim>30</dim>
					<dim>512</dim>
				</port>
				<port id="1">
					<dim>1</dim>
					<dim>256</dim>
				</port>
				<port id="2">
					<dim>1</dim>
					<dim>256</dim>
				</port>
			</input>
			<output>
				<port id="3" precision="FP32">
					<dim>1</dim>
					<dim>30</dim>
					<dim>256</dim>
				</port>
			</output>
			<port_map>
				<input external_port_id="2" internal_layer_id="4"/>
				<input external_port_id="1" internal_layer_id="3"/>
				<input axis="1" external_port_id="0" internal_layer_id="0" start="0"/>
				<output axis="1" external_port_id="3" internal_layer_id="13"/>
			</port_map>
			<back_edges>
				<edge from-layer="9" to-layer="4"/>
				<edge from-layer="10" to-layer="3"/>
			</back_edges>
			<body>
				<layers>
					<layer id="0" name="32" type="Parameter" version="opset1">
						<data element_type="f32" shape="1,1,512"/>
						<output>
							<port id="0" precision="FP32">
								<dim>1</dim>
								<dim>1</dim>
								<dim>512</dim>
							</port>
						</output>
					</layer>
					<layer id="1" name="25_const" type="Const" version="opset1">
						<data element_type="i64" offset="22195240" shape="1" size="8"/>
						<output>
							<port id="1" precision="I64">
								<dim>1</dim>
							</port>
						</output>
					</layer>
					<layer id="2" name="shadow/LSTMLayers/decoder/stack_bidirectional_rnn/cell_1/bidirectional_rnn/fw/fw/while/TensorArrayReadV3/Output_0/Data_/InputSqueeze" type="Squeeze" version="opset1">
						<input>
							<port id="0">
								<dim>1</dim>
								<dim>1</dim>
								<dim>512</dim>
							</port>
							<port id="1">
								<dim>1</dim>
							</port>
						</input>
						<output>
							<port id="2" precision="FP32">
								<dim>1</dim>
								<dim>512</dim>
							</port>
						</output>
					</layer>
					<layer id="3" name="34" type="Parameter" version="opset1">
						<data element_type="f32" shape="1,256"/>
						<output>
							<port id="0" precision="FP32">
								<dim>1</dim>
								<dim>256</dim>
							</port>
						</output>
					</layer>
					<layer id="4" name="36" type="Parameter" version="opset1">
						<data element_type="f32" shape="1,256"/>
						<output>
							<port id="0" precision="FP32">
								<dim>1</dim>
								<dim>256</dim>
							</port>
						</output>
					</layer>
					<layer id="5" name="shadow/LSTMLayers/decoder/stack_bidirectional_rnn/cell_1/bidirectional_rnn/fw/fw/while/lstm_cell/concat/LSTMCell/Split270_const" type="Const" version="opset1">
						<data element_type="f32" offset="41171204" shape="1024,512" size="2097152"/>
						<output>
							<port id="1" precision="FP32">
								<dim>1024</dim>
								<dim>512</dim>
							</port>
						</output>
					</layer>
					<layer id="6" name="shadow/LSTMLayers/decoder/stack_bidirectional_rnn/cell_1/bidirectional_rnn/fw/fw/while/lstm_cell/concat/LSTMCell/Split271_const" type="Const" version="opset1">
						<data element_type="f32" offset="43268356" shape="1024,256" size="1048576"/>
						<output>
							<port id="1" precision="FP32">
								<dim>1024</dim>
								<dim>256</dim>
							</port>
						</output>
					</layer>
					<layer id="7" name="shadow/LSTMLayers/decoder/stack_bidirectional_rnn/cell_1/bidirectional_rnn/fw/fw/while/lstm_cell/BiasAdd/Enter/Output_0/Data__const" type="Const" version="opset1">
						<data element_type="f32" offset="44316932" shape="1024" size="4096"/>
						<output>
							<port id="1" precision="FP32">
								<dim>1024</dim>
							</port>
						</output>
					</layer>
					<layer id="8" name="shadow/LSTMLayers/decoder/stack_bidirectional_rnn/cell_1/bidirectional_rnn/fw/fw/while/lstm_cell/concat/LSTMCell" type="LSTMCell" version="opset1">
						<data hidden_size="256"/>
						<input>
							<port id="0">
								<dim>1</dim>
								<dim>512</dim>
							</port>
							<port id="1">
								<dim>1</dim>
								<dim>256</dim>
							</port>
							<port id="2">
								<dim>1</dim>
								<dim>256</dim>
							</port>
							<port id="3">
								<dim>1024</dim>
								<dim>512</dim>
							</port>
							<port id="4">
								<dim>1024</dim>
								<dim>256</dim>
							</port>
							<port id="5">
								<dim>1024</dim>
							</port>
						</input>
						<output>
							<port id="6" precision="FP32">
								<dim>1</dim>
								<dim>256</dim>
							</port>
							<port id="7" precision="FP32">
								<dim>1</dim>
								<dim>256</dim>
							</port>
						</output>
					</layer>
					<layer id="9" name="shadow/LSTMLayers/decoder/stack_bidirectional_rnn/cell_1/bidirectional_rnn/fw/fw/while/lstm_cell/concat/LSTMCell/Output_1/Data_/sink_port_0" type="Result" version="opset1">
						<input>
							<port id="0">
								<dim>1</dim>
								<dim>256</dim>
							</port>
						</input>
					</layer>
					<layer id="10" name="shadow/LSTMLayers/decoder/stack_bidirectional_rnn/cell_1/bidirectional_rnn/fw/fw/while/lstm_cell/concat/LSTMCell/Output_0/Data_/sink_port_0" type="Result" version="opset1">
						<input>
							<port id="0">
								<dim>1</dim>
								<dim>256</dim>
							</port>
						</input>
					</layer>
					<layer id="11" name="28_const" type="Const" version="opset1">
						<data element_type="i64" offset="22195240" shape="1" size="8"/>
						<output>
							<port id="1" precision="I64">
								<dim>1</dim>
							</port>
						</output>
					</layer>
					<layer id="12" name="shadow/LSTMLayers/decoder/stack_bidirectional_rnn/cell_1/bidirectional_rnn/fw/fw/while/lstm_cell/concat/LSTMCell/Output_0/Data_/OutputUnsqueeze" type="Unsqueeze" version="opset1">
						<input>
							<port id="0">
								<dim>1</dim>
								<dim>256</dim>
							</port>
							<port id="1">
								<dim>1</dim>
							</port>
						</input>
						<output>
							<port id="2" precision="FP32">
								<dim>1</dim>
								<dim>1</dim>
								<dim>256</dim>
							</port>
						</output>
					</layer>
					<layer id="13" name="30/sink_port_0" type="Result" version="opset1">
						<input>
							<port id="0">
								<dim>1</dim>
								<dim>1</dim>
								<dim>256</dim>
							</port>
						</input>
					</layer>
				</layers>
				<edges>
					<edge from-layer="0" from-port="0" to-layer="2" to-port="0"/>
					<edge from-layer="1" from-port="1" to-layer="2" to-port="1"/>
					<edge from-layer="2" from-port="2" to-layer="8" to-port="0"/>
					<edge from-layer="3" from-port="0" to-layer="8" to-port="1"/>
					<edge from-layer="4" from-port="0" to-layer="8" to-port="2"/>
					<edge from-layer="5" from-port="1" to-layer="8" to-port="3"/>
					<edge from-layer="6" from-port="1" to-layer="8" to-port="4"/>
					<edge from-layer="7" from-port="1" to-layer="8" to-port="5"/>
					<edge from-layer="8" from-port="7" to-layer="9" to-port="0"/>
					<edge from-layer="8" from-port="6" to-layer="10" to-port="0"/>
					<edge from-layer="8" from-port="6" to-layer="12" to-port="0"/>
					<edge from-layer="11" from-port="1" to-layer="12" to-port="1"/>
					<edge from-layer="12" from-port="2" to-layer="13" to-port="0"/>
				</edges>
			</body>
		</layer>
		<layer id="72" name="shadow/LSTMLayers/decoder/stack_bidirectional_rnn/cell_1/bidirectional_rnn/bw/bw/while/Enter_3/Output_0/Data__const" type="Const" version="opset1">
			<data element_type="f32" offset="22195248" shape="1,256" size="1024"/>
			<output>
				<port id="1" precision="FP32">
					<dim>1</dim>
					<dim>256</dim>
				</port>
			</output>
		</layer>
		<layer id="73" name="shadow/LSTMLayers/decoder/stack_bidirectional_rnn/cell_1/bidirectional_rnn/bw/bw/while/Enter_4/Output_0/Data__const" type="Const" version="opset1">
			<data element_type="f32" offset="22195248" shape="1,256" size="1024"/>
			<output>
				<port id="1" precision="FP32">
					<dim>1</dim>
					<dim>256</dim>
				</port>
			</output>
		</layer>
		<layer id="74" name="shadow/LSTMLayers/decoder/stack_bidirectional_rnn/cell_1/bidirectional_rnn/bw/bw/while/LoopCond/TensorIteratorCondition_/TensorIterator" type="TensorIterator" version="opset1">
			<input>
				<port id="0">
					<dim>1</dim>
					<dim>30</dim>
					<dim>512</dim>
				</port>
				<port id="1">
					<dim>1</dim>
					<dim>256</dim>
				</port>
				<port id="2">
					<dim>1</dim>
					<dim>256</dim>
				</port>
			</input>
			<output>
				<port id="3" precision="FP32">
					<dim>1</dim>
					<dim>30</dim>
					<dim>256</dim>
				</port>
			</output>
			<port_map>
				<input external_port_id="2" internal_layer_id="3"/>
				<input external_port_id="1" internal_layer_id="4"/>
				<input axis="1" end="0" external_port_id="0" internal_layer_id="0" start="-1" stride="-1"/>
				<output axis="1" end="0" external_port_id="3" internal_layer_id="13" start="-1" stride="-1"/>
			</port_map>
			<back_edges>
				<edge from-layer="10" to-layer="3"/>
				<edge from-layer="9" to-layer="4"/>
			</back_edges>
			<body>
				<layers>
					<layer id="0" name="32" type="Parameter" version="opset1">
						<data element_type="f32" shape="1,1,512"/>
						<output>
							<port id="0" precision="FP32">
								<dim>1</dim>
								<dim>1</dim>
								<dim>512</dim>
							</port>
						</output>
					</layer>
					<layer id="1" name="25_const" type="Const" version="opset1">
						<data element_type="i64" offset="22195240" shape="1" size="8"/>
						<output>
							<port id="1" precision="I64">
								<dim>1</dim>
							</port>
						</output>
					</layer>
					<layer id="2" name="shadow/LSTMLayers/decoder/stack_bidirectional_rnn/cell_1/bidirectional_rnn/bw/bw/while/TensorArrayReadV3/Output_0/Data_/InputSqueeze" type="Squeeze" version="opset1">
						<input>
							<port id="0">
								<dim>1</dim>
								<dim>1</dim>
								<dim>512</dim>
							</port>
							<port id="1">
								<dim>1</dim>
							</port>
						</input>
						<output>
							<port id="2" precision="FP32">
								<dim>1</dim>
								<dim>512</dim>
							</port>
						</output>
					</layer>
					<layer id="3" name="36" type="Parameter" version="opset1">
						<data element_type="f32" shape="1,256"/>
						<output>
							<port id="0" precision="FP32">
								<dim>1</dim>
								<dim>256</dim>
							</port>
						</output>
					</layer>
					<layer id="4" name="34" type="Parameter" version="opset1">
						<data element_type="f32" shape="1,256"/>
						<output>
							<port id="0" precision="FP32">
								<dim>1</dim>
								<dim>256</dim>
							</port>
						</output>
					</layer>
					<layer id="5" name="shadow/LSTMLayers/decoder/stack_bidirectional_rnn/cell_1/bidirectional_rnn/bw/bw/while/lstm_cell/concat/LSTMCell/Split270_const" type="Const" version="opset1">
						<data element_type="f32" offset="44321028" shape="1024,512" size="2097152"/>
						<output>
							<port id="1" precision="FP32">
								<dim>1024</dim>
								<dim>512</dim>
							</port>
						</output>
					</layer>
					<layer id="6" name="shadow/LSTMLayers/decoder/stack_bidirectional_rnn/cell_1/bidirectional_rnn/bw/bw/while/lstm_cell/concat/LSTMCell/Split271_const" type="Const" version="opset1">
						<data element_type="f32" offset="46418180" shape="1024,256" size="1048576"/>
						<output>
							<port id="1" precision="FP32">
								<dim>1024</dim>
								<dim>256</dim>
							</port>
						</output>
					</layer>
					<layer id="7" name="shadow/LSTMLayers/decoder/stack_bidirectional_rnn/cell_1/bidirectional_rnn/bw/bw/while/lstm_cell/BiasAdd/Enter/Output_0/Data__const" type="Const" version="opset1">
						<data element_type="f32" offset="47466756" shape="1024" size="4096"/>
						<output>
							<port id="1" precision="FP32">
								<dim>1024</dim>
							</port>
						</output>
					</layer>
					<layer id="8" name="shadow/LSTMLayers/decoder/stack_bidirectional_rnn/cell_1/bidirectional_rnn/bw/bw/while/lstm_cell/concat/LSTMCell" type="LSTMCell" version="opset1">
						<data hidden_size="256"/>
						<input>
							<port id="0">
								<dim>1</dim>
								<dim>512</dim>
							</port>
							<port id="1">
								<dim>1</dim>
								<dim>256</dim>
							</port>
							<port id="2">
								<dim>1</dim>
								<dim>256</dim>
							</port>
							<port id="3">
								<dim>1024</dim>
								<dim>512</dim>
							</port>
							<port id="4">
								<dim>1024</dim>
								<dim>256</dim>
							</port>
							<port id="5">
								<dim>1024</dim>
							</port>
						</input>
						<output>
							<port id="6" precision="FP32">
								<dim>1</dim>
								<dim>256</dim>
							</port>
							<port id="7" precision="FP32">
								<dim>1</dim>
								<dim>256</dim>
							</port>
						</output>
					</layer>
					<layer id="9" name="shadow/LSTMLayers/decoder/stack_bidirectional_rnn/cell_1/bidirectional_rnn/bw/bw/while/lstm_cell/concat/LSTMCell/Output_1/Data_/sink_port_0" type="Result" version="opset1">
						<input>
							<port id="0">
								<dim>1</dim>
								<dim>256</dim>
							</port>
						</input>
					</layer>
					<layer id="10" name="shadow/LSTMLayers/decoder/stack_bidirectional_rnn/cell_1/bidirectional_rnn/bw/bw/while/lstm_cell/concat/LSTMCell/Output_0/Data_/sink_port_0" type="Result" version="opset1">
						<input>
							<port id="0">
								<dim>1</dim>
								<dim>256</dim>
							</port>
						</input>
					</layer>
					<layer id="11" name="28_const" type="Const" version="opset1">
						<data element_type="i64" offset="22195240" shape="1" size="8"/>
						<output>
							<port id="1" precision="I64">
								<dim>1</dim>
							</port>
						</output>
					</layer>
					<layer id="12" name="shadow/LSTMLayers/decoder/stack_bidirectional_rnn/cell_1/bidirectional_rnn/bw/bw/while/lstm_cell/concat/LSTMCell/Output_0/Data_/OutputUnsqueeze" type="Unsqueeze" version="opset1">
						<input>
							<port id="0">
								<dim>1</dim>
								<dim>256</dim>
							</port>
							<port id="1">
								<dim>1</dim>
							</port>
						</input>
						<output>
							<port id="2" precision="FP32">
								<dim>1</dim>
								<dim>1</dim>
								<dim>256</dim>
							</port>
						</output>
					</layer>
					<layer id="13" name="30/sink_port_0" type="Result" version="opset1">
						<input>
							<port id="0">
								<dim>1</dim>
								<dim>1</dim>
								<dim>256</dim>
							</port>
						</input>
					</layer>
				</layers>
				<edges>
					<edge from-layer="0" from-port="0" to-layer="2" to-port="0"/>
					<edge from-layer="1" from-port="1" to-layer="2" to-port="1"/>
					<edge from-layer="2" from-port="2" to-layer="8" to-port="0"/>
					<edge from-layer="3" from-port="0" to-layer="8" to-port="1"/>
					<edge from-layer="4" from-port="0" to-layer="8" to-port="2"/>
					<edge from-layer="5" from-port="1" to-layer="8" to-port="3"/>
					<edge from-layer="6" from-port="1" to-layer="8" to-port="4"/>
					<edge from-layer="7" from-port="1" to-layer="8" to-port="5"/>
					<edge from-layer="8" from-port="7" to-layer="9" to-port="0"/>
					<edge from-layer="8" from-port="6" to-layer="10" to-port="0"/>
					<edge from-layer="8" from-port="6" to-layer="12" to-port="0"/>
					<edge from-layer="11" from-port="1" to-layer="12" to-port="1"/>
					<edge from-layer="12" from-port="2" to-layer="13" to-port="0"/>
				</edges>
			</body>
		</layer>
		<layer id="75" name="shadow/LSTMLayers/decoder/stack_bidirectional_rnn/cell_1/concat" type="Concat" version="opset1">
			<data axis="2"/>
			<input>
				<port id="0">
					<dim>1</dim>
					<dim>30</dim>
					<dim>256</dim>
				</port>
				<port id="1">
					<dim>1</dim>
					<dim>30</dim>
					<dim>256</dim>
				</port>
			</input>
			<output>
				<port id="2" precision="FP32">
					<dim>1</dim>
					<dim>30</dim>
					<dim>512</dim>
				</port>
			</output>
		</layer>
		<layer id="76" name="shadow/LSTMLayers/Reshape/Cast_16250_const" type="Const" version="opset1">
			<data element_type="i64" offset="22196272" shape="2" size="16"/>
			<output>
				<port id="1" precision="I64">
					<dim>2</dim>
				</port>
			</output>
		</layer>
		<layer id="77" name="shadow/LSTMLayers/Reshape" type="Reshape" version="opset1">
			<data special_zero="False"/>
			<input>
				<port id="0">
					<dim>1</dim>
					<dim>30</dim>
					<dim>512</dim>
				</port>
				<port id="1">
					<dim>2</dim>
				</port>
			</input>
			<output>
				<port id="2" precision="FP32">
					<dim>30</dim>
					<dim>512</dim>
				</port>
			</output>
		</layer>
		<layer id="78" name="shadow/LSTMLayers/fully_connected/MatMul/1_port_transpose5621_const" type="Const" version="opset1">
			<data element_type="f32" offset="22196288" shape="37,512" size="75776"/>
			<output>
				<port id="1" precision="FP32">
					<dim>37</dim>
					<dim>512</dim>
				</port>
			</output>
		</layer>
		<layer id="79" name="shadow/LSTMLayers/fully_connected/MatMul" type="MatMul" version="opset1">
			<data transpose_a="False" transpose_b="True"/>
			<input>
				<port id="0">
					<dim>30</dim>
					<dim>512</dim>
				</port>
				<port id="1">
					<dim>37</dim>
					<dim>512</dim>
				</port>
			</input>
			<output>
				<port id="2" precision="FP32">
					<dim>30</dim>
					<dim>37</dim>
				</port>
			</output>
		</layer>
		<layer id="80" name="shadow/LSTMLayers/fully_connected/biases/read/Output_0/Data_/copy_const" type="Const" version="opset1">
			<data element_type="f32" offset="22272064" shape="1,37" size="148"/>
			<output>
				<port id="1" precision="FP32">
					<dim>1</dim>
					<dim>37</dim>
				</port>
			</output>
		</layer>
		<layer id="81" name="shadow/LSTMLayers/fully_connected/BiasAdd/Add" type="Add" version="opset1">
			<input>
				<port id="0">
					<dim>30</dim>
					<dim>37</dim>
				</port>
				<port id="1">
					<dim>1</dim>
					<dim>37</dim>
				</port>
			</input>
			<output>
				<port id="2" precision="FP32">
					<dim>30</dim>
					<dim>37</dim>
				</port>
			</output>
		</layer>
		<layer id="82" name="shadow/LSTMLayers/Reshape_1/Cast_16252_const" type="Const" version="opset1">
			<data element_type="i64" offset="22272212" shape="3" size="24"/>
			<output>
				<port id="1" precision="I64">
					<dim>3</dim>
				</port>
			</output>
		</layer>
		<layer id="83" name="shadow/LSTMLayers/Reshape_1" type="Reshape" version="opset1">
			<data special_zero="False"/>
			<input>
				<port id="0">
					<dim>30</dim>
					<dim>37</dim>
				</port>
				<port id="1">
					<dim>3</dim>
				</port>
			</input>
			<output>
				<port id="2" precision="FP32">
					<dim>1</dim>
					<dim>30</dim>
					<dim>37</dim>
				</port>
			</output>
		</layer>
		<layer id="84" name="shadow/LSTMLayers/transpose_time_major/Cast_16248_const" type="Const" version="opset1">
			<data element_type="i64" offset="22272236" shape="3" size="24"/>
			<output>
				<port id="1" precision="I64">
					<dim>3</dim>
				</port>
			</output>
		</layer>
		<layer id="85" name="shadow/LSTMLayers/transpose_time_major" type="Transpose" version="opset1">
			<input>
				<port id="0">
					<dim>1</dim>
					<dim>30</dim>
					<dim>37</dim>
				</port>
				<port id="1">
					<dim>3</dim>
				</port>
			</input>
			<output>
				<port id="2" precision="FP32">
					<dim>30</dim>
					<dim>1</dim>
					<dim>37</dim>
				</port>
			</output>
		</layer>
		<layer id="86" name="shadow/LSTMLayers/transpose_time_major/sink_port_0" type="Result" version="opset1">
			<input>
				<port id="0">
					<dim>30</dim>
					<dim>1</dim>
					<dim>37</dim>
				</port>
			</input>
		</layer>
	</layers>
	<edges>
		<edge from-layer="0" from-port="0" to-layer="2" to-port="0"/>
		<edge from-layer="1" from-port="1" to-layer="2" to-port="1"/>
		<edge from-layer="2" from-port="2" to-layer="4" to-port="0"/>
		<edge from-layer="3" from-port="1" to-layer="4" to-port="1"/>
		<edge from-layer="4" from-port="2" to-layer="6" to-port="0"/>
		<edge from-layer="5" from-port="1" to-layer="6" to-port="1"/>
		<edge from-layer="6" from-port="2" to-layer="8" to-port="0"/>
		<edge from-layer="7" from-port="1" to-layer="8" to-port="1"/>
		<edge from-layer="8" from-port="2" to-layer="9" to-port="0"/>
		<edge from-layer="9" from-port="1" to-layer="10" to-port="0"/>
		<edge from-layer="10" from-port="1" to-layer="12" to-port="0"/>
		<edge from-layer="11" from-port="1" to-layer="12" to-port="1"/>
		<edge from-layer="12" from-port="2" to-layer="14" to-port="0"/>
		<edge from-layer="13" from-port="1" to-layer="14" to-port="1"/>
		<edge from-layer="14" from-port="2" to-layer="15" to-port="0"/>
		<edge from-layer="15" from-port="1" to-layer="16" to-port="0"/>
		<edge from-layer="16" from-port="1" to-layer="18" to-port="0"/>
		<edge from-layer="17" from-port="1" to-layer="18" to-port="1"/>
		<edge from-layer="18" from-port="2" to-layer="20" to-port="0"/>
		<edge from-layer="19" from-port="1" to-layer="20" to-port="1"/>
		<edge from-layer="20" from-port="2" to-layer="21" to-port="0"/>
		<edge from-layer="21" from-port="1" to-layer="23" to-port="0"/>
		<edge from-layer="22" from-port="1" to-layer="23" to-port="1"/>
		<edge from-layer="23" from-port="2" to-layer="25" to-port="0"/>
		<edge from-layer="24" from-port="1" to-layer="25" to-port="1"/>
		<edge from-layer="25" from-port="2" to-layer="26" to-port="0"/>
		<edge from-layer="26" from-port="1" to-layer="27" to-port="0"/>
		<edge from-layer="27" from-port="1" to-layer="29" to-port="0"/>
		<edge from-layer="28" from-port="1" to-layer="29" to-port="1"/>
		<edge from-layer="29" from-port="2" to-layer="31" to-port="0"/>
		<edge from-layer="30" from-port="1" to-layer="31" to-port="1"/>
		<edge from-layer="31" from-port="2" to-layer="32" to-port="0"/>
		<edge from-layer="32" from-port="1" to-layer="34" to-port="0"/>
		<edge from-layer="33" from-port="1" to-layer="34" to-port="1"/>
		<edge from-layer="34" from-port="2" to-layer="36" to-port="0"/>
		<edge from-layer="35" from-port="1" to-layer="36" to-port="1"/>
		<edge from-layer="36" from-port="2" to-layer="37" to-port="0"/>
		<edge from-layer="37" from-port="1" to-layer="38" to-port="0"/>
		<edge from-layer="38" from-port="1" to-layer="40" to-port="0"/>
		<edge from-layer="39" from-port="1" to-layer="40" to-port="1"/>
		<edge from-layer="40" from-port="2" to-layer="42" to-port="0"/>
		<edge from-layer="41" from-port="1" to-layer="42" to-port="1"/>
		<edge from-layer="42" from-port="2" to-layer="43" to-port="0"/>
		<edge from-layer="43" from-port="1" to-layer="45" to-port="0"/>
		<edge from-layer="44" from-port="1" to-layer="45" to-port="1"/>
		<edge from-layer="45" from-port="2" to-layer="47" to-port="0"/>
		<edge from-layer="46" from-port="1" to-layer="47" to-port="1"/>
		<edge from-layer="47" from-port="2" to-layer="50" to-port="0"/>
		<edge from-layer="48" from-port="1" to-layer="50" to-port="1"/>
		<edge from-layer="49" from-port="1" to-layer="50" to-port="2"/>
		<edge from-layer="47" from-port="2" to-layer="53" to-port="0"/>
		<edge from-layer="51" from-port="1" to-layer="53" to-port="1"/>
		<edge from-layer="52" from-port="1" to-layer="53" to-port="2"/>
		<edge from-layer="50" from-port="3" to-layer="54" to-port="0"/>
		<edge from-layer="53" from-port="3" to-layer="54" to-port="1"/>
		<edge from-layer="54" from-port="2" to-layer="57" to-port="0"/>
		<edge from-layer="55" from-port="1" to-layer="57" to-port="1"/>
		<edge from-layer="56" from-port="1" to-layer="57" to-port="2"/>
		<edge from-layer="54" from-port="2" to-layer="60" to-port="0"/>
		<edge from-layer="58" from-port="1" to-layer="60" to-port="1"/>
		<edge from-layer="59" from-port="1" to-layer="60" to-port="2"/>
		<edge from-layer="57" from-port="3" to-layer="61" to-port="0"/>
		<edge from-layer="60" from-port="3" to-layer="61" to-port="1"/>
		<edge from-layer="61" from-port="2" to-layer="64" to-port="0"/>
		<edge from-layer="62" from-port="1" to-layer="64" to-port="1"/>
		<edge from-layer="63" from-port="1" to-layer="64" to-port="2"/>
		<edge from-layer="61" from-port="2" to-layer="67" to-port="0"/>
		<edge from-layer="65" from-port="1" to-layer="67" to-port="1"/>
		<edge from-layer="66" from-port="1" to-layer="67" to-port="2"/>
		<edge from-layer="64" from-port="3" to-layer="68" to-port="0"/>
		<edge from-layer="67" from-port="3" to-layer="68" to-port="1"/>
		<edge from-layer="68" from-port="2" to-layer="71" to-port="0"/>
		<edge from-layer="69" from-port="1" to-layer="71" to-port="1"/>
		<edge from-layer="70" from-port="1" to-layer="71" to-port="2"/>
		<edge from-layer="68" from-port="2" to-layer="74" to-port="0"/>
		<edge from-layer="72" from-port="1" to-layer="74" to-port="1"/>
		<edge from-layer="73" from-port="1" to-layer="74" to-port="2"/>
		<edge from-layer="71" from-port="3" to-layer="75" to-port="0"/>
		<edge from-layer="74" from-port="3" to-layer="75" to-port="1"/>
		<edge from-layer="75" from-port="2" to-layer="77" to-port="0"/>
		<edge from-layer="76" from-port="1" to-layer="77" to-port="1"/>
		<edge from-layer="77" from-port="2" to-layer="79" to-port="0"/>
		<edge from-layer="78" from-port="1" to-layer="79" to-port="1"/>
		<edge from-layer="79" from-port="2" to-layer="81" to-port="0"/>
		<edge from-layer="80" from-port="1" to-layer="81" to-port="1"/>
		<edge from-layer="81" from-port="2" to-layer="83" to-port="0"/>
		<edge from-layer="82" from-port="1" to-layer="83" to-port="1"/>
		<edge from-layer="83" from-port="2" to-layer="85" to-port="0"/>
		<edge from-layer="84" from-port="1" to-layer="85" to-port="1"/>
		<edge from-layer="85" from-port="2" to-layer="86" to-port="0"/>
	</edges>
	<meta_data>
		<MO_version value="2020.1.0-55-g3b9c198827"/>
		<cli_parameters>
			<blobs_as_inputs value="True"/>
			<caffe_parser_path value="DIR"/>
			<data_type value="FP32"/>
			<disable_nhwc_to_nchw value="False"/>
			<disable_omitting_optional value="False"/>
			<disable_resnet_optimization value="False"/>
			<enable_concat_optimization value="False"/>
			<enable_flattening_nested_params value="False"/>
			<enable_ssd_gluoncv value="False"/>
			<extensions value="DIR"/>
			<framework value="tf"/>
			<freeze_placeholder_with_value value="{}"/>
			<generate_deprecated_IR_V2 value="False"/>
			<generate_deprecated_IR_V7 value="False"/>
			<generate_experimental_IR_V10 value="True"/>
			<input value="Placeholder"/>
			<input_model value="DIR/graph.pb"/>
			<input_model_is_text value="False"/>
			<input_shape value="[1,32,120,1]"/>
			<k value="DIR/CustomLayersMapping.xml"/>
			<keep_quantize_ops_in_IR value="True"/>
			<keep_shape_ops value="False"/>
			<legacy_mxnet_model value="False"/>
			<log_level value="ERROR"/>
			<mean_scale_values value="{}"/>
			<mean_values value="()"/>
			<model_name value="text-recognition-0012"/>
			<move_to_preprocess value="False"/>
			<output value="['shadow/LSTMLayers/transpose_time_major']"/>
			<output_dir value="DIR"/>
			<placeholder_data_types value="{}"/>
			<placeholder_shapes value="{'Placeholder': array([  1,  32, 120,   1])}"/>
			<progress value="False"/>
			<remove_memory value="False"/>
			<remove_output_softmax value="False"/>
			<reverse_input_channels value="True"/>
			<save_params_from_nd value="False"/>
			<scale_values value="()"/>
			<silent value="False"/>
			<stream_output value="False"/>
			<unset unset_cli_parameters="batch, counts, disable_fusing, disable_gfusing, finegrain_fusing, input_checkpoint, input_meta_graph, input_proto, input_symbol, mean_file, mean_file_offsets, nd_prefix_name, pretrained_model_name, saved_model_dir, saved_model_tags, scale, tensorboard_logdir, tensorflow_custom_layer_libraries, tensorflow_custom_operations_config_update, tensorflow_object_detection_api_pipeline_config, tensorflow_operation_patterns, tensorflow_subgraph_patterns, tensorflow_use_custom_operations_config, transformations_config"/>
		</cli_parameters>
	</meta_data>
</net>
